app/data/UserModel/aadjalql/model.pth (torch, 56973 bytes, 10 tensors)

attention_pooling.attention.weight f4 [1, 192]
0	0xb80dd8ce	-3.3818935e-05
1	0x396a9bee	0.00022374067
2	0x38118bb5	3.4700806e-05
3	0xbb6a7bab	-0.0035779278
4	0x381ad227	3.691218e-05
5	0x3a66ef9a	0.0008809507
6	0xbb8f3bc0	-0.0043711364
7	0xbac15fc9	-0.0014753278
8	0x39e6f96b	0.0004405485
9	0x39910041	0.00027656744
10	0x39129b66	0.00013981535
11	0x392e19f2	0.00016603598
12	0x39c4849f	0.00037482844
13	0x3b9bbf1f	0.004753008
14	0xb76b609f	-1.4029588e-05
15	0xb94fadaf	-0.0001980576
16	0x38d9796f	0.00010369985
17	0xbb98721d	-0.0046522752
18	0x398d3022	0.00026929477
19	0x38a25c0e	7.7419085e-05
20	0xb7d3dd65	-2.5256255e-05
21	0x3906114b	0.00012785678
22	0xb882585d	-6.215342e-05
23	0xb65c7740	-3.2851967e-06
24	0x39390fd3	0.0001764887
25	0x38da7065	0.00010415985
26	0xb5eef262	-1.7802925e-06
27	0xb8220416	-3.8627615e-05
28	0xba38a459	-0.00070435327
29	0x38a32275	7.778864e-05
30	0xb93d8929	-0.0001807554
31	0x38ce0366	9.8234785e-05
32	0xb883d3a3	-6.285987e-05
33	0x3717e93d	9.054606e-06
34	0x3b204d92	0.0024460298
35	0xb8dbceba	-0.000104812396
36	0x38e645cc	0.00010980255
37	0xbb3e0c28	-0.0028998945
38	0x350ad283	5.171534e-07
39	0x39ebce12	0.00044976227
40	0xb5b80857	-1.3711496e-06
41	0xb7a86f1b	-2.0078898e-05
42	0x39ec4782	0.00045066705
43	0x3704ce38	7.915827e-06
44	0x37b8b9a4	2.2020955e-05
45	0x3b3b0e62	0.0028542508
46	0x353e9404	7.0995907e-07
47	0x37f6f74a	2.9440638e-05
48	0x3a14ba3c	0.0005673503
49	0xb722340c	-9.668071e-06
50	0xb8aafb70	-8.1530656e-05
51	0x39dd3965	0.00042195167
52	0xbb964650	-0.0045860186
53	0xbbc168f6	-0.005902405
54	0xb88cee42	-6.720099e-05
55	0x38ba4902	8.88277e-05
56	0xb8a891df	-8.038035e-05
57	0xb522c0d4	-6.0630305e-07
58	0x3912f2c9	0.0001401409
59	0x3b665caf	0.0035150459
60	0xb9e4944a	-0.00043598033
61	0xb87383d8	-5.8058504e-05
62	0xb9978830	-0.00028902432
63	0x3ba1d88b	0.004939144
64	0xbb727c54	-0.0037000375
65	0xb92b0598	-0.00016309915
66	0x39d039e7	0.00039715992
67	0x387b5649	5.9923423e-05
68	0xb936ec74	-0.00017444958
69	0xbabec2ad	-0.0014553868
70	0x393b5ef0	0.00017869077
71	0x3bbd9573	0.005785638
72	0x394da746	0.00019612638
73	0x3814d2fb	3.548244e-05
74	0xba09152c	-0.000522929
75	0xb71cf420	-9.355164e-06
76	0x342430e0	1.5291471e-07
77	0xb8df3e58	-0.00010645081
78	0x39cc4ede	0.00038968673
79	0x3af7765d	0.001887988
80	0x368c60ba	4.1835856e-06
81	0x36f71a72	7.3642523e-06
82	0x382bfb05	4.1003357e-05
83	0x3847430c	4.750774e-05
84	0x366cebaa	3.5303915e-06
85	0x378fbf7a	1.7136092e-05
86	0x38ed8896	0.00011326482
87	0xb53b803f	-6.984955e-07
88	0xb937c8f0	-0.00017527095
89	0xba9f5e4c	-0.001215884
90	0x3a739428	0.00092917914
91	0x37983411	1.8144057e-05
92	0xb8d858f7	-0.000103162536
93	0xb7a776c2	-1.9963252e-05
94	0xbb89d3d8	-0.004206162
95	0x39e2d20e	0.00043262582
96	0x37f9fa3f	2.9799643e-05
97	0x38b9e841	8.864748e-05
98	0xb999afd3	-0.00029313433
99	0xb9eb70b4	-0.00044906663
100	0xb92b6975	-0.00016347117
101	0xb6a6a525	-4.966411e-06
102	0x3a88025d	0.0010376681
103	0x3900bcca	0.0001227736
104	0x3b4fef4d	0.0031728328
105	0xb830523e	-4.2038264e-05
106	0xb9ddf8cb	-0.0004233777
107	0x39de8a57	0.0004244621
108	0x395710e3	0.00020510289
109	0xb7146374	-8.844643e-06
110	0xb8e123a0	-0.00010735472
111	0x36c64748	5.909158e-06
112	0xb8888688	-6.510044e-05
113	0x36c4c09e	5.863679e-06
114	0x39013176	0.00012320824
115	0x39eb4719	0.00044875665
116	0x385e9864	5.307085e-05
117	0xb9415fb5	-0.00018441568
118	0x38a88cfd	8.0371254e-05
119	0xb7aa6208	-2.0311229e-05
120	0x3821b562	3.8554317e-05
121	0xb8dc08de	-0.00010492069
122	0xbb9909b9	-0.0046703485
123	0xb7e3c5c7	-2.7152606e-05
124	0x390738bf	0.00012895743
125	0x39e85444	0.0004431327
126	0xbb30ed86	-0.0026997044
127	0xb9ecca26	-0.0004516404
128	0xb8b5dade	-8.67152e-05
129	0x3671f3b4	3.6053652e-06
130	0x3884de28	6.33563e-05
131	0x399f24f8	0.00030354387
132	0x386d64d8	5.659912e-05
133	0x3964fa11	0.00021836931
134	0x3790ee9c	1.7277249e-05
135	0xb790dd83	-1.7269287e-05
136	0x3aae9bc8	0.0013321573
137	0x38965487	7.168302e-05
138	0x370ecac8	8.511073e-06
139	0xb78f112e	-1.7054928e-05
140	0x382e8e7b	4.1617528e-05
141	0xb918f977	-0.00014588783
142	0xb85d6228	-5.278192e-05
143	0xb8384a27	-4.393808e-05
144	0xbb22a9bb	-0.0024820406
145	0x38b2709f	8.508679e-05
146	0xb7189fa2	-9.097073e-06
147	0x38ca10c9	9.635237e-05
148	0xb9354dca	-0.00017290484
149	0x3906a92c	0.00012842257
150	0xb875be76	-5.8589932e-05
151	0xb9889744	-0.00026052643
152	0x3b87db40	0.0041460097
153	0x3b43c4c1	0.0029871913
154	0xb7911f20	-1.729984e-05
155	0xb8500a70	-4.9600785e-05
156	0xbba2dfb4	-0.004970515
157	0xb88f472d	-6.832029e-05
158	0xb8d06c3b	-9.9383724e-05
159	0x3b09e0a1	0.002103843
160	0xb9778c98	-0.00023608131
161	0x3ad1e056	0.0016012292
162	0x39e057b9	0.00042789968
163	0x39260f20	0.00015836628
164	0xb97993c1	-0.00023801533
165	0x38302ad3	4.2001553e-05
166	0xbbc12d50	-0.0058952942
167	0x3b02dbe5	0.0019967493
168	0xbb4c3e02	-0.003116489
169	0x38b76a5f	8.745933e-05
170	0x37040c77	7.870715e-06
171	0x3805b591	3.1878768e-05
172	0x3ba0e307	0.0049098763
173	0x39d52319	0.00040652676
174	0x38dbc695	0.000104797226
175	0x3ba9f0e8	0.005186189
176	0xba56a855	-0.00081885356
177	0xb9d44d66	-0.00040493457
178	0x39f348a2	0.00046402687
179	0xb88110a5	-6.1542996e-05
180	0xb93f9209	-0.00018269582
181	0x3881e4cf	6.193818e-05
182	0xb7aba566	-2.0461808e-05
183	0x3b183c9b	0.0023229483
184	0xbac413c6	-0.0014959506
185	0xb7e21228	-2.6949754e-05
186	0x37cbebcd	2.4309289e-05
187	0xb71153ff	-8.66223e-06
188	0x38d97b1c	0.00010370297
189	0xb9d25752	-0.0004011938
190	0xb8fbdddb	-0.000120099365
191	0x387e5c21	6.064412e-05

attention_pooling.layer_norm.weight f4 [192]
0	0x3f7ddf89	0.9916921
1	0x3f80ef8e	1.0073106
2	0x3f8152c4	1.0103383
3	0x3f7fe51c	0.9995897
4	0x3f815cb3	1.0106415
5	0x3f7e1c09	0.9926153
6	0x3f7ff3b6	0.9998125
7	0x3f7cf351	0.9880877
8	0x3f8033db	1.0015825
9	0x3f809999	1.0046874
10	0x3f7cb3ad	0.98711663
11	0x3f810867	1.0080689
12	0x3f8028c9	1.0012447
13	0x3f801527	1.0006455
14	0x3f80afa7	1.0053605
15	0x3f7d2606	0.98886144
16	0x3f80f864	1.0075803
17	0x3f80df93	1.006823
18	0x3f7f612e	0.9975766
19	0x3f7fef08	0.9997411
20	0x3f80fc2b	1.0076956
21	0x3f7d7119	0.990007
22	0x3f80c53b	1.006019
23	0x3f80c46f	1.0059947
24	0x3f813318	1.0093718
25	0x3f803f4c	1.0019317
26	0x3f812e06	1.009217
27	0x3f7eb857	0.9950003
28	0x3f7d9e69	0.9906984
29	0x3f7fdfc1	0.99950796
30	0x3f80c536	1.0060184
31	0x3f7f634b	0.99760884
32	0x3f7ea56d	0.9947117
33	0x3f7ecd65	0.9953216
34	0x3f80d95b	1.0066332
35	0x3f7f828a	0.9980856
36	0x3f7d73fc	0.99005103
37	0x3f80051e	1.0001562
38	0x3f7f1811	0.996461
39	0x3f819369	1.0123111
40	0x3f80188a	1.0007489
41	0x3f7edcba	0.9955555
42	0x3f80cd8d	1.0062729
43	0x3f7f7d84	0.99800897
44	0x3f805231	1.0025083
45	0x3f7f1dda	0.99654925
46	0x3f7e31d6	0.99294794
47	0x3f801491	1.0006276
48	0x3f7de30a	0.9917456
49	0x3f7cae61	0.9870358
50	0x3f835c8f	1.0262622
51	0x3f7de241	0.9917336
52	0x3f806aab	1.0032552
53	0x3f803fbe	1.0019453
54	0x3f7f257a	0.9966656
55	0x3f7e2fc3	0.9929163
56	0x3f803cc3	1.0018543
57	0x3f7f47b2	0.99718773
58	0x3f80c50a	1.0060132
59	0x3f80ab15	1.005221
60	0x3f814a28	1.0100756
61	0x3f81a887	1.0129555
62	0x3f7f7773	0.9979164
63	0x3f800034	1.0000062
64	0x3f801de0	1.0009117
65	0x3f7e7012	0.99389756
66	0x3f7ebbfd	0.995056
67	0x3f7fd941	0.9994088
68	0x3f7ede67	0.9955811
69	0x3f7da47d	0.99079114
70	0x3f80b0f1	1.0053998
71	0x3f819c26	1.0125778
72	0x3f7ea3d2	0.9946872
73	0x3f8140e7	1.0097932
74	0x3f7e8b49	0.9943128
75	0x3f81252d	1.008947
76	0x3f7e2df1	0.9928885
77	0x3f7ff72f	0.9998655
78	0x3f7e96e7	0.9944901
79	0x3f7ed2b9	0.9954029
80	0x3f7f6b03	0.9977266
81	0x3f7c2f3b	0.9850957
82	0x3f8094a0	1.0045357
83	0x3f7f71f0	0.9978323
84	0x3f7fb27a	0.9988171
85	0x3f80acd5	1.0052744
86	0x3f7d9a30	0.99063396
87	0x3f80aa80	1.0052032
88	0x3f7ccacd	0.9874695
89	0x3f80fcb0	1.0077114
90	0x3f8087ad	1.0041405
91	0x3f807172	1.0034621
92	0x3f8196cd	1.0124146
93	0x3f7fd35f	0.999319
94	0x3f7f9e09	0.9985052
95	0x3f8078b4	1.0036836
96	0x3f806f5f	1.0033988
97	0x3f7cff5f	0.98827165
98	0x3f7ecaff	0.995285
99	0x3f7f7691	0.9979029
100	0x3f80b4f3	1.0055221
101	0x3f7f0dab	0.9963023
102	0x3f8157dd	1.0104939
103	0x3f801eb1	1.0009366
104	0x3f7b85e1	0.9825116
105	0x3f815139	1.0102912
106	0x3f8024cd	1.0011231
107	0x3f7f8b37	0.998218
108	0x3f7b5203	0.98172015
109	0x3f7f0e58	0.9963126
110	0x3f7c46cb	0.9854552
111	0x3f7e833d	0.99419004
112	0x3f804600	1.0021362
113	0x3f7ea0c2	0.99464047
114	0x3f7df1e6	0.9919723
115	0x3f7e7364	0.9939482
116	0x3f7edef7	0.9955897
117	0x3f81bec8	1.0136347
118	0x3f80dd5b	1.0067552
119	0x3f7f1d18	0.9965377
120	0x3f812eb0	1.0092373
121	0x3f7fdf40	0.9995003
122	0x3f8029f6	1.0012805
123	0x3f8071be	1.0034711
124	0x3f7f67bf	0.9976768
125	0x3f7fa9e2	0.99868596
126	0x3f7ef5e7	0.9959397
127	0x3f7d576c	0.9896152
128	0x3f7d5e23	0.98971766
129	0x3f80d373	1.0064529
130	0x3f80fa71	1.0076429
131	0x3f7eb2c9	0.99491554
132	0x3f802b9a	1.0013306
133	0x3f7e70a3	0.9939062
134	0x3f7d0535	0.9883607
135	0x3f7f37b3	0.99694365
136	0x3f81b689	1.013383
137	0x3f7d30fc	0.9890287
138	0x3f7c85cf	0.98641676
139	0x3f80c6ae	1.0060632
140	0x3f7ebb27	0.9950432
141	0x3f8206a6	1.0158279
142	0x3f7f0ff7	0.99633735
143	0x3f7ffd5e	0.9999598
144	0x3f7e7b74	0.99407125
145	0x3f802408	1.0010996
146	0x3f812e90	1.0092335
147	0x3f80d402	1.00647
148	0x3f7e013b	0.9922063
149	0x3f7f4696	0.9971708
150	0x3f8170b7	1.0112523
151	0x3f80c96f	1.0061473
152	0x3f8097ac	1.0046287
153	0x3f7ddad2	0.9916202
154	0x3f80378a	1.0016949
155	0x3f814433	1.0098938
156	0x3f7d4ced	0.98945504
157	0x3f814832	1.0100157
158	0x3f7feebb	0.9997365
159	0x3f7e9195	0.9944089
160	0x3f7f73d7	0.9978613
161	0x3f7efe4a	0.99606764
162	0x3f7c7a0c	0.9862373
163	0x3f7d8104	0.9902499
164	0x3f80c541	1.0060197
165	0x3f7f5454	0.9973805
166	0x3f7feee5	0.999739
167	0x3f80e52d	1.0069939
168	0x3f806c69	1.0033084
169	0x3f80d3ff	1.0064696
170	0x3f7eda0b	0.9955146
171	0x3f806efc	1.003387
172	0x3f7ee1ce	0.995633
173	0x3f7db211	0.9909983
174	0x3f7fc684	0.99912286
175	0x3f7b3caa	0.9813944
176	0x3f7ec859	0.99524456
177	0x3f7e5bb5	0.99358684
178	0x3f80f8d3	1.0075935
179	0x3f801f1c	1.0009494
180	0x3f7ffab2	0.99991906
181	0x3f80b08a	1.0053875
182	0x3f7e8888	0.9942708
183	0x3f7f4120	0.9970875
184	0x3f80a78c	1.0051131
185	0x3f7c3094	0.98511624
186	0x3f8053a0	1.002552
187	0x3f7f333d	0.9968756
188	0x3f820309	1.0157176
189	0x3f7f6484	0.9976275
190	0x3f7f652c	0.9976375
191	0x3f801036	1.0004947

attention_pooling.layer_norm.bias f4 [192]
0	0x3708238c	8.114508e-06
1	0xb5e62707	-1.7147694e-06
2	0xb6c7d3a0	-5.9552985e-06
3	0x3709ff9c	8.22535e-06
4	0xb63909d0	-2.757286e-06
5	0xb6796b96	-3.7166515e-06
6	0xb71fe1a3	-9.529674e-06
7	0x36886854	4.0652612e-06
8	0xb735d54d	-1.0838104e-05
9	0x37684f4a	1.38467385e-05
10	0xb72cebb7	-1.03068805e-05
11	0x35a8c9ac	1.257567e-06
12	0xb7476ae3	-1.1886211e-05
13	0xb7a80858	-2.0031046e-05
14	0x37bb8777	2.2355218e-05
15	0xb6fbbd6e	-7.5024354e-06
16	0x36943d16	4.417855e-06
17	0xb5a0e88c	-1.1988609e-06
18	0xb623285e	-2.431239e-06
19	0xb693991a	-4.3987648e-06
20	0x360d1acd	2.1026237e-06
21	0x3649b698	3.0057618e-06
22	0xb6e30976	-6.7662286e-06
23	0x36c9fe9e	6.019908e-06
24	0xb6d28635	-6.2741115e-06
25	0xb44df428	-1.9180936e-07
26	0x368f18da	4.264625e-06
27	0x37301d53	1.0497245e-05
28	0xb64a5f69	-3.0155882e-06
29	0xb66dc33a	-3.5429389e-06
30	0xb6e3a045	-6.783785e-06
31	0x3754301a	1.2647384e-05
32	0x3384e546	6.1884336e-08
33	0x3667be3f	3.453242e-06
34	0x35aea16d	1.3010991e-06
35	0xb6fb5a71	-7.4909117e-06
36	0x35650e8c	8.5330316e-07
37	0x3701c1de	7.734137e-06
38	0xb5da66d0	-1.6272188e-06
39	0xb815b301	-3.569108e-05
40	0x362af9d6	2.5477398e-06
41	0x36c419fc	5.84428e-06
42	0x3673bd22	3.6319911e-06
43	0xb6d2b824	-6.2799245e-06
44	0x36de33b5	6.622135e-06
45	0x37702400	1.4313497e-05
46	0xb659f111	-3.247584e-06
47	0x3531f04f	6.6287333e-07
48	0x358cc956	1.0489409e-06
49	0xb584e57c	-9.901555e-07
50	0x350dd592	5.283738e-07
51	0xb696cb6b	-4.4940293e-06
52	0x37185ad0	9.08105e-06
53	0xb572d4f5	-9.046192e-07
54	0xb614c4ae	-2.2168201e-06
55	0xb7a3fd23	-1.954899e-05
56	0x3633643e	2.6731427e-06
57	0x360032d9	1.9103084e-06
58	0xb4f97e80	-4.6471905e-07
59	0x36c6c31f	5.923575e-06
60	0x36f913c2	7.4230784e-06
61	0x35a3947f	1.2187664e-06
62	0x370661a1	8.009753e-06
63	0x362c61db	2.5686957e-06
64	0x35182bff	5.6688435e-07
65	0x3631fc98	2.6522084e-06
66	0x36fe00d6	7.569887e-06
67	0x35cb45bf	1.5144977e-06
68	0x3762d65b	1.3520558e-05
69	0xb6428614	-2.8986296e-06
70	0xb6c42faa	-5.846804e-06
71	0xb77cc654	-1.5066547e-05
72	0xb6667440	-3.4340337e-06
73	0x3708783f	8.134229e-06
74	0x36bb2247	5.5770247e-06
75	0xb698efbb	-4.5578613e-06
76	0x372b8a8b	1.0224651e-05
77	0xb715dab0	-8.932009e-06
78	0xb6ff60cd	-7.6108613e-06
79	0x36b41710	5.367103e-06
80	0xb74a5cab	-1.2061714e-05
81	0x36a8f23d	5.0349904e-06
82	0x374d787c	1.2247005e-05
83	0x3601ecfd	1.9360443e-06
84	0xb6fe58e4	-7.580138e-06
85	0x3567e1ba	8.638268e-07
86	0x36ac5bb4	5.136675e-06
87	0xb79beda6	-1.8588104e-05
88	0xb75926bf	-1.2943229e-05
89	0x36f5e5a4	7.3283027e-06
90	0x359cbf39	1.1678559e-06
91	0xb62ccdb9	-2.5749744e-06
92	0xb6988d51	-4.5464044e-06
93	0xb6c35b7f	-5.8221044e-06
94	0x36ccc30a	6.1023793e-06
95	0xb7b1fb99	-2.1217204e-05
96	0xb644c7f6	-2.9322669e-06
97	0x36b2265e	5.30928e-06
98	0x3614a188	2.2147742e-06
99	0x35a794b6	1.248575e-06
100	0xb52945f6	-6.305921e-07
101	0xb69dfd1d	-4.708431e-06
102	0x3556b7b8	7.998856e-07
103	0xb6410b28	-2.8765735e-06
104	0x3738b500	1.1009397e-05
105	0x37ae194c	2.0754196e-05
106	0x36d3ee7a	6.3160523e-06
107	0x37085e1e	8.128145e-06
108	0xb68152f8	-3.8541584e-06
109	0xb5eada34	-1.7497864e-06
110	0x372f6613	1.0454579e-05
111	0x36a35e0c	4.868727e-06
112	0x374558de	1.1762806e-05
113	0xb6ad83d1	-5.171147e-06
114	0xb77ef0aa	-1.5195614e-05
115	0xb48241e0	-2.4262317e-07
116	0x35475b13	7.426581e-07
117	0xb77877c6	-1.4809839e-05
118	0xb6cccbc5	-6.1033957e-06
119	0xb6b61f4f	-5.4276675e-06
120	0x36d4165b	6.320695e-06
121	0xb6f169b6	-7.194666e-06
122	0xb6a719b8	-4.979982e-06
123	0xb6cb751f	-6.063506e-06
124	0x36bde5b4	5.65938e-06
125	0xb713c31c	-8.80731e-06
126	0x3672f793	3.6204917e-06
127	0xb6e7671c	-6.89634e-06
128	0xb6819ce2	-3.862763e-06
129	0xb73cc14a	-1.1250677e-05
130	0x3782031e	1.549866e-05
131	0xb6910e0b	-4.3229716e-06
132	0xb5e832a2	-1.7300083e-06
133	0x361afc17	2.3094524e-06
134	0x376bc959	1.4053971e-05
135	0x3616dd9c	2.2480735e-06
136	0x36cd0922	6.1105393e-06
137	0xb686da68	-4.018937e-06
138	0xb717190c	-9.006133e-06
139	0xb2b09d00	-2.0560492e-08
140	0xb63bd922	-2.799156e-06
141	0x37377092	1.093386e-05
142	0xb7c4b378	-2.3448592e-05
143	0xb7143d91	-8.835822e-06
144	0x34eac8c0	4.373196e-07
145	0xb4f61ad0	-4.584058e-07
146	0x36a37eb9	4.872531e-06
147	0xb7189632	-9.094876e-06
148	0xb65e49e5	-3.312359e-06
149	0x377b50e4	1.49796e-05
150	0xb689d476	-4.107652e-06
151	0xb73f1a05	-1.1390545e-05
152	0x379ec00a	1.8924493e-05
153	0xb418a580	-1.4216312e-07
154	0x378d3d30	1.6837002e-05
155	0xb610ed93	-2.1595959e-06
156	0x378a5774	1.6491605e-05
157	0x373516d9	1.079376e-05
158	0x378a1528	1.6460734e-05
159	0xb72028b6	-9.546222e-06
160	0xb7c7bbf3	-2.381017e-05
161	0x34b14e28	3.3025685e-07
162	0x374b37cf	1.2112737e-05
163	0x36a197de	4.8158536e-06
164	0xb733c906	-1.0716036e-05
165	0xb6d79edc	-6.425993e-06
166	0x36d1ea44	6.2559575e-06
167	0x36b3e684	5.3614513e-06
168	0xb7329cf2	-1.0646168e-05
169	0x361f3df2	2.3728903e-06
170	0x36a27308	4.8413676e-06
171	0x375ab893	1.3036787e-05
172	0x3575c838	9.156097e-07
173	0xb6359ed7	-2.7063559e-06
174	0x360394e4	1.9607187e-06
175	0x358f969b	1.0698162e-06
176	0xb65d6c76	-3.2994699e-06
177	0x37ad05da	2.0625932e-05
178	0xb6111c26	-2.1623068e-06
179	0xb64f2bd0	-3.0870906e-06
180	0xb75dd6f1	-1.3222671e-05
181	0xb5db51d8	-1.6340591e-06
182	0xb71937b7	-9.132483e-06
183	0xb5f8d6e4	-1.8539981e-06
184	0x3518e00e	5.6950455e-07
185	0xb5b5f7a0	-1.3557619e-06
186	0x3603c54b	1.963536e-06
187	0x36ecafeb	7.0538276e-06
188	0x35eec0d4	1.7788502e-06
189	0xb7bbc6c7	-2.23847e-05
190	0x36ca4fd1	6.029361e-06
191	0xb6fee8d0	-7.596893e-06

fc1.weight f4 [64, 192]
0	0xbd616410	-0.055027068
1	0x3d2e2d9d	0.04252397
2	0xbc8fe667	-0.01756592
3	0x3d8135ef	0.06309115
4	0x3d149888	0.036278278
5	0xbd136355	-0.035983402
6	0xbd3dd0a0	-0.04634154
7	0xbcfd4859	-0.030918287
8	0x3cbb66cc	0.022876166
9	0xbd91d18f	-0.07120048
10	0xbd3097a8	-0.04311338
11	0x3d2e3eee	0.042540483
12	0xbcd32f76	-0.025779467
13	0x3bcd3db7	0.0062634605
14	0xbd86f3ec	-0.06589493
15	0xbd4d16ca	-0.05007056
16	0x3d354fcf	0.044265565
17	0x3da66b9e	0.08125995
18	0x3d932086	0.07183938
19	0xbd463425	-0.048389573
20	0xbd15a577	-0.036534753
21	0x3d657e74	0.0560288
22	0xbd804bff	-0.06264495
23	0xbd8be840	-0.068314075
24	0xbc997dbf	-0.018736718
25	0x3b97cc4c	0.0046325084
26	0x3d4a1bcc	0.049342915
27	0x3c2a2713	0.010385293
28	0xbda118e8	-0.078660786
29	0xbd82f16f	-0.06393706
30	0xbccf4109	-0.025299566
31	0x3d6a2266	0.05716171
32	0xbd3cc478	-0.046085805
33	0x3d215354	0.03938611
34	0x3c82525b	0.01590841
35	0x3d92a462	0.0716026
36	0x3d9ec882	0.077530876
37	0x3ccbf244	0.024895795
38	0xbcbbfedb	-0.022948673
39	0xbd830b74	-0.06398669
40	0x3d616029	0.055023346
41	0xbcef9bd1	-0.029249104
42	0xbd3f7ffa	-0.046752907
43	0x3c20bab6	0.00981014
44	0xbc9c2b85	-0.01906372
45	0x3ccb521f	0.024819432
46	0x3d6601ba	0.05615399
47	0x3d27995f	0.04091775
48	0xbce2a93c	-0.027668588
49	0xbda15fee	-0.07879625
50	0xbd59d6ef	-0.053183492
51	0xbcdc45cd	-0.026888752
52	0x3c27e7a1	0.010248096
53	0x3c702614	0.014657516
54	0xbd1e6f7c	-0.03868054
55	0xbb065c03	-0.002050162
56	0xbbbfa67e	-0.005848705
57	0x3d803233	0.06259575
58	0x3d2e5b2c	0.042567417
59	0xbb879233	-0.0041373014
60	0x3cb35304	0.02189017
61	0xbbc7dc70	-0.0060992762
62	0xbd01f4b5	-0.03172751
63	0xbd43ad5b	-0.047772747
64	0x3c9a18cf	0.018810658
65	0xbc9b453d	-0.018953914
66	0x3d08e5f9	0.033422444
67	0x3d1bcedb	0.03803907
68	0x3bc0fb59	0.005889338
69	0x3d9127e9	0.070876904
70	0x3d932d0c	0.071863264
71	0xbd841af5	-0.06450454
72	0xbd8ed275	-0.06973735
73	0x3d90bcfa	0.070672944
74	0xbcffb874	-0.031215884
75	0x3ca64bf8	0.020299897
76	0x3d10c14c	0.035340592
77	0xbd565c4c	-0.052334115
78	0x3b774833	0.0037732243
79	0xbcd6fa56	-0.026242416
80	0xbd1f0d04	-0.038830772
81	0x3d6edac1	0.05831409
82	0x3d8f6496	0.07001607
83	0x3d7493ba	0.059711196
84	0x3d97a880	0.07405186
85	0x3b3e4f49	0.0029038957
86	0xbcef87a5	-0.029239485
87	0xbd53a53c	-0.05167125
88	0x3d401483	0.04689456
89	0xbd82a362	-0.06378819
90	0xbd12d613	-0.03584869
91	0xbccf31b8	-0.025292262
92	0xbd0d7685	-0.034536857
93	0x3d84f306	0.064916655
94	0x3c9cc6c5	0.01913775
95	0xbd6d9f17	-0.058013048
96	0x3d7b67c3	0.06137825
97	0x3d91b76c	0.07115063
98	0xbcfebe9c	-0.031096749
99	0xbd8e56c6	-0.069501445
100	0x3cf1717d	0.02947306
101	0x3b63bd47	0.003475027
102	0xbca1593c	-0.01969587
103	0x3d84ab41	0.064779766
104	0x3b7f9607	0.0038999335
105	0xbcbb43bf	-0.022859452
106	0xbcc4b1e0	-0.024010599
107	0xbc88cce5	-0.016699264
108	0x3cf8518c	0.030312322
109	0xbd81f3e5	-0.06345347
110	0x3d998a66	0.074971005
111	0xbc92d9d2	-0.01792613
112	0x3b0d30e1	0.0021544027
113	0x3d7e6ac4	0.06211354
114	0xbd65c16b	-0.05609266
115	0x3d125df6	0.03573414
116	0x3d56d7de	0.05245196
117	0xbc9d3162	-0.019188587
118	0xbd198d2a	-0.03748814
119	0x3c75070b	0.014955292
120	0x3c859471	0.016306134
121	0x3d02d7d8	0.031944126
122	0xbd0ffe62	-0.035154708
123	0x3cb0dd1f	0.021589814
124	0x392307d4	0.00015547808
125	0xbcaa23af	-0.020768968
126	0xbd427bb1	-0.047481243
127	0xbd5d5c8d	-0.05404334
128	0x3d0d6f59	0.034530018
129	0xbc550f07	-0.013004071
130	0x3ab09407	0.001347185
131	0xbcc0f176	-0.023552638
132	0x3c85944f	0.01630607
133	0x3c8c2171	0.01710579
134	0xbb8bbe91	-0.0042646606
135	0xbd1630aa	-0.036667503
136	0xbd3da497	-0.046299543
137	0x3b6fa560	0.0036567077
138	0xbc9b9a23	-0.018994397
139	0x3ca08f57	0.0195996
140	0x3d1e2972	0.038613744
141	0x3d963e33	0.07336082
142	0x3d786d3e	0.060651056
143	0x3c611bd3	0.013739544
144	0x3c9e3862	0.019313995
145	0xbd36faa8	-0.04467264
146	0x3d589c50	0.052883446
147	0x3cad92d8	0.021188185
148	0xbcad8325	-0.021180699
149	0xbcd55ec7	-0.02604617
150	0x3d51d7bd	0.051231135
151	0xbd3bbc6c	-0.04583399
152	0x3d86f626	0.06589918
153	0xbd3be025	-0.045868058
154	0x3d7636dd	0.060110915
155	0xbd73a99e	-0.05948793
156	0xbd2fda0f	-0.042932566
157	0x3db13f64	0.08654669
158	0x3d3c9d58	0.046048492
159	0x3d0c914f	0.034318265
160	0x3c300771	0.010743962
161	0x3c6580dc	0.014007773
162	0x3cc202dd	0.023683006
163	0x3c613a6a	0.013746837
164	0x3d4d1881	0.050072197
165	0xbd18c9aa	-0.037301697
166	0x3b0f5758	0.002187213
167	0x3bb9c3de	0.005669101
168	0x3d00f9ca	0.031488217
169	0xbbe821f1	-0.0070841243
170	0x3da7f6e0	0.082013845
171	0x3d21a4bc	0.039463744
172	0x3cfc63d6	0.030809324
173	0x3c777fc7	0.015106148
174	0x3c1bca11	0.009508626
175	0x3d9e8180	0.07739544
176	0xbd36f427	-0.044666436
177	0x3be18a91	0.0068829735
178	0x3d8145fa	0.06312175
179	0x3c83c534	0.016085245
180	0x3cb98480	0.022646189
181	0x3d2901a0	0.041261315
182	0x3d09cb89	0.033641372
183	0x3d12df70	0.035857618
184	0xbd96b5ed	-0.07358918
185	0xbd3d8250	-0.046266854
186	0x3d014bf0	0.03156656
187	0x3d855b25	0.06511525
188	0x3cfdd825	0.030986855
189	0x3c72d673	0.0148216365
190	0x3c89e369	0.01683207
191	0x3cec355a	0.028834034
192	0x3d1fbaac	0.038996384
193	0x3bae79b4	0.0053245667
194	0xbd0ddb33	-0.034632873
195	0x3d0cb870	0.03435558
196	0xbd4e2c00	-0.05033493
197	0xbd830cfa	-0.063989595
198	0x3baa66c0	0.005200237
199	0x3ccf4b3b	0.025304427
200	0x3d40c8d9	0.047066543
201	0xbcf40054	-0.029785313
202	0xbd70ef34	-0.058821872
203	0x3d354eba	0.044264533
204	0xbd09a1c2	-0.03360153
205	0x3c4d2338	0.012520604
206	0xbd0e28dc	-0.034706935
207	0xbd42bfa1	-0.047546033
208	0xbbc0724a	-0.0058729993
209	0x3d4c0d18	0.049817175
210	0x3d4a8b52	0.049449272
211	0x3d6a16e1	0.057150725
212	0x3be7230f	0.00705374
213	0x3d6bf22e	0.057604007
214	0x3caac803	0.020847326
215	0xbd892ec6	-0.066983745
216	0x3c25984a	0.010107109
217	0xbb9f15c5	-0.00485489
218	0xbd82130a	-0.06351288
219	0x3d043086	0.032272838
220	0x3d9ac2c2	0.07556678
221	0x3d5fa3ab	0.054599445
222	0xbcfabcb2	-0.030607555
223	0x3d7ece79	0.062208626
224	0x3da0809b	0.078370295
225	0xbcbafdb2	-0.02282605
226	0xbc980533	-0.018557167
227	0x3d3efb68	0.04662648
228	0xbd9fc9f8	-0.07802194
229	0x3d880274	0.06641093
230	0xbd1e0b63	-0.038585078
231	0xbaf18e1a	-0.001842919
232	0x3c520c8d	0.012820375
233	0x3d0e1e2c	0.034696743
234	0x3cc0090d	0.023441816
235	0x3d799f9d	0.060943235
236	0x3c9b36d4	0.018947043
237	0xbcdcaec1	-0.026938798
238	0x3b838dbc	0.004014699
239	0xbcd2a8d4	-0.02571527
240	0x3d8b561d	0.06803534
241	0x3d519ccc	0.051174924
242	0xbcfe664d	-0.03105464
243	0x3c9bcacb	0.019017598
244	0xbd5e4315	-0.054263193
245	0x3c3e08f7	0.011598817
246	0x3d8cb7f1	0.068710215
247	0xbce68439	-0.02813922
248	0x3c926596	0.017870706
249	0x3d1520d7	0.03640827
250	0x3d99a5e2	0.07502343
251	0x3d4644a4	0.048405305
252	0xbcf52f3c	-0.02992975
253	0x3cc64acc	0.024205588
254	0x3d49694e	0.049172692
255	0xbd553289	-0.052050147

fc1.bias f4 [64]
0	0xb8287573	-4.0163704e-05
1	0x35aa2c80	1.2678938e-06
2	0x39b3ac7c	0.0003427005
3	0xb9421eca	-0.00018512752
4	0xb9b24ea1	-0.0003400939
5	0xb537a2f8	-6.8409963e-07
6	0x397fd1e5	0.00024396887
7	0x386ebb4c	5.6918056e-05
8	0x38dd9ed9	0.00010567689
9	0x3ae3710b	0.0017352415
10	0xb816d13e	-3.595766e-05
11	0x37e84273	2.7687498e-05
12	0xb8f376d8	-0.00011609279
13	0xbb3e8c59	-0.0029075353
14	0x3af49676	0.0018660564
15	0x3b53c0f7	0.003231106
16	0x38c38d7a	9.324677e-05
17	0xb6e4d28a	-6.8194395e-06
18	0xb817af1a	-3.616428e-05
19	0xb7e6f31e	-2.7531347e-05
20	0xb83ad1b5	-4.454116e-05
21	0x390200f8	0.00012398127
22	0xb9b62be6	-0.00034746452
23	0x39266418	0.00015868281
24	0xb807308c	-3.223172e-05
25	0xb6ede9b0	-7.090355e-06
26	0x3994008a	0.0002822916
27	0x3883db01	6.2873594e-05
28	0xbba54872	-0.0050440365
29	0xb90ca4c1	-0.00013412816
30	0x3665c909	3.4240677e-06
31	0x393126d0	0.00016894494
32	0x39b9c765	0.0003543451
33	0xb9477fd2	-0.00019025736
34	0x3af1df92	0.001845347
35	0xb5cc2558	-1.5210053e-06
36	0xb951f27c	-0.00020022126
37	0xb8ba899f	-8.894805e-05
38	0x36564758	3.1930012e-06
39	0x35505f60	7.7624827e-07
40	0xb89632d0	-7.162022e-05
41	0x3b9f5542	0.0048624584
42	0xb7d2c89f	-2.5127372e-05
43	0x382a75c9	4.0640854e-05
44	0x39de91f8	0.00042451895
45	0xbb0c8222	-0.002143987
46	0xbb8e94cc	-0.004351234
47	0x392a0179	0.00016213012
48	0x38961f6b	7.1584094e-05
49	0x39250ab2	0.0001573961
50	0xbb94b6e3	-0.0045384034
51	0xb91642e4	-0.00014330033
52	0x38cbfd32	9.7269556e-05
53	0xb898d191	-7.2869596e-05
54	0xb8abeb98	-8.197798e-05
55	0x39432e1a	0.00018613823
56	0xb815092b	-3.5532907e-05
57	0x3934eff9	0.00017255534
58	0x361b0d40	2.3104512e-06
59	0xbbaaa02e	-0.005207083
60	0x3804130c	3.148899e-05
61	0xb9ec5c52	-0.00045082212
62	0x393574d4	0.00017305027
63	0xb79bf1e0	-1.8590072e-05

bn1.weight f4 [64]
0	0x3f8c8f1c	1.0981174
1	0x3f819715	1.0124232
2	0x3f8a43f8	1.0801992
3	0x3f7a313e	0.9773139
4	0x3f766433	0.9624664
5	0x3f8b1968	1.0867128
6	0x3f77ba37	0.96768516
7	0x3f742967	0.95375675
8	0x3f8b4fcf	1.0883731
9	0x3f7c6b92	0.9860164
10	0x3f8c00f6	1.0937793
11	0x3f89e369	1.0772525
12	0x3f89ef1f	1.0776099
13	0x3f8d0f7b	1.1020349
14	0x3f8a062d	1.0783135
15	0x3f89a90e	1.0754716
16	0x3f8a1dca	1.0790341
17	0x3f89bc44	1.0760579
18	0x3f8a171f	1.0788306
19	0x3f89458c	1.0724349
20	0x3f88a60a	1.0675671
21	0x3f8b23c7	1.0870293
22	0x3f840f3c	1.0317149
23	0x3f730eff	0.9494476
24	0x3f760fa9	0.96117646
25	0x3f72ad89	0.94796044
26	0x3f72bdb3	0.9482071
27	0x3f74838e	0.95513237
28	0x3f79368b	0.9734885
29	0x3f88e075	1.0693499
30	0x3f74e9d7	0.9566931
31	0x3f73bd94	0.9521115
32	0x3f89e6ce	1.0773561
33	0x3f897d90	1.0741444
34	0x3f81f936	1.0154178
35	0x3f89aca4	1.0755811
36	0x3f8a6785	1.0812842
37	0x3f72b55a	0.9480797
38	0x3f89aac2	1.0755236
39	0x3f74d8ae	0.95643127
40	0x3f739576	0.95149934
41	0x3f89d3b7	1.0767735
42	0x3f892d1b	1.071689
43	0x3f74a145	0.9555858
44	0x3f738edc	0.9513986
45	0x3f89fc8a	1.0780194
46	0x3f72d0d0	0.9484987
47	0x3f8a2885	1.0793616
48	0x3f8ac746	1.0842063
49	0x3f885ee5	1.065396
50	0x3f75e74f	0.96056074
51	0x3f80fb10	1.0076618
52	0x3f8b3dfb	1.087829
53	0x3f741ef3	0.95359725
54	0x3f8ac5c4	1.0841603
55	0x3f745025	0.9543479
56	0x3f895e27	1.0731858
57	0x3f74fe73	0.9570076
58	0x3f7f64e6	0.99763334
59	0x3f894e36	1.0726993
60	0x3f8a6491	1.081194
61	0x3f748eae	0.9553021
62	0x3f72e15f	0.9487514
63	0x3f72e6ac	0.9488323

bn1.bias f4 [64]
0	0x3dc8a909	0.09797866
1	0x3b767621	0.0037607031
2	0x3da15790	0.07878029
3	0xbcb12f98	-0.02162914
4	0xbd1fad15	-0.038983423
5	0x3db04019	0.08605976
6	0xbcca2b92	-0.02467898
7	0xbd611e6a	-0.054960646
8	0x3db882c8	0.090093195
9	0xbc6b6398	-0.014367007
10	0x3dc07d9a	0.093989566
11	0x3d9e9fe7	0.07745343
12	0x3d9dbf13	0.0770246
13	0x3dd3b0a0	0.10336423
14	0x3da0420b	0.07825097
15	0x3d9972f4	0.07492629
16	0x3d9f831b	0.07788678
17	0x3d97ad3a	0.07406087
18	0x3d9aa921	0.0755179
19	0x3d91b9e6	0.071155354
20	0x3d89a52b	0.067209564
21	0x3db2f77f	0.087386124
22	0x3d1a74fc	0.03770922
23	0xbd8a2fee	-0.06747423
24	0xbd2d9fa0	-0.04238856
25	0xbd66a407	-0.056308772
26	0xbd7a9d54	-0.061185196
27	0xbd326435	-0.043552596
28	0xbce78f0f	-0.028266458
29	0x3d8e2595	0.06940762
30	0xbd534941	-0.051583532
31	0xbd63d81f	-0.05562603
32	0x3d9d7220	0.07687783
33	0x3d95d905	0.07316784
34	0x3c1de6b1	0.009637521
35	0x3d9b191e	0.0757315
36	0x3da416e4	0.080121785
37	0xbd7080da	-0.058716632
38	0x3d983441	0.07431842
39	0xbd433db9	-0.047666285
40	0xbd3a34e0	-0.04546058
41	0x3d91f526	0.071268365
42	0x3d946cac	0.0724729
43	0xbd4c40be	-0.04986643
44	0xbd52b2b3	-0.051439952
45	0x3d9f946a	0.077919796
46	0xbd5c3629	-0.05376259
47	0x3d9d8a39	0.076923795
48	0x3dac5cde	0.084161505
49	0x3d8549dc	0.06508228
50	0xbd2039bb	-0.039117556
51	0x3c7150e6	0.01472876
52	0x3db2f495	0.087380566
53	0xbd521521	-0.05128968
54	0x3daaf0a6	0.08346681
55	0xbd7f39e3	-0.062311064
56	0x3d9490a2	0.07254149
57	0xbd4452eb	-0.04793064
58	0xbc2496a6	-0.010045683
59	0x3d91a301	0.07111169
60	0x3da4f168	0.08053857
61	0xbd757d7c	-0.059934124
62	0xbd869e97	-0.06573217
63	0xbd5ce4c8	-0.05392912

bn1.running_mean f4 [64]
0	0x3dfbc336	0.12293093
1	0x3e91078f	0.2832608
2	0xbd407396	-0.04698523
3	0xbd3647e9	-0.044502173
4	0x3df0f980	0.11766338
5	0xbcf4a7e4	-0.029865213
6	0xbd8eba60	-0.06969142
7	0x3aebf779	0.001800283
8	0xbe8cac55	-0.2747523
9	0x3dc154dc	0.09440014
10	0xbdccb1e4	-0.099948674
11	0x3e96a769	0.294246
12	0xbdbb77fc	-0.091537446
13	0x3db3982c	0.08769259
14	0xbd93328e	-0.07187377
15	0xbe1932b7	-0.14960752
16	0x3e21ad2f	0.1578872
17	0xbdd20eb7	-0.10256713
18	0x3c095e30	0.008384272
19	0xbd37f25d	-0.04490887
20	0xbda96f2d	-0.08273158
21	0x3dab0a9c	0.08351633
22	0xbe09ec9e	-0.13469169
23	0x3d205d93	0.03915174
24	0x3e696a03	0.22794347
25	0xbc494c06	-0.012286192
26	0xbd75c298	-0.060000032
27	0x3eb6d6d0	0.35710764
28	0x3d1f2c6d	0.038860727
29	0xbe634087	-0.22192584
30	0x3e12175f	0.14266728
31	0xbd9ddfba	-0.07708688
32	0x3d936c87	0.07198434
33	0xbd45b784	-0.048270717
34	0x3d139b0d	0.03603654
35	0xbd3535b1	-0.044240657
36	0x3dca7b22	0.09886767
37	0x3e136d7c	0.14397234
38	0xbd1ab608	-0.037771255
39	0x3d7ca9c9	0.061685357
40	0x3cc5a2c5	0.024125466
41	0x3e296fc2	0.16546538
42	0x3dda7fcb	0.10668906
43	0xbdd8b279	-0.10580916
44	0xbdb4f69e	-0.08836101
45	0xbe38f04f	-0.1806042
46	0xbd5c76c2	-0.053824194
47	0xbdcbcdcd	-0.09951363
48	0xbd631ef8	-0.055449456
49	0x3dbd1ff0	0.09234607
50	0x3d12fb69	0.035884295
51	0x3dc90121	0.098146684
52	0x3e64c954	0.22342426
53	0xbcd5eaf0	-0.026113003
54	0xbe2d8126	-0.16943797
55	0x3dae778f	0.08518898
56	0x3badb05e	0.0053005656
57	0x3d358900	0.044320107
58	0xbe280eb2	-0.16411856
59	0xbe6f2024	-0.23352104
60	0x3dcd2098	0.100159824
61	0xbc841b55	-0.016126314
62	0xbdd13fa7	-0.10217219
63	0xbc8c80ca	-0.017151255

bn1.running_var f4 [64]
0	0x3f6f2c95	0.934274
1	0x3f11082f	0.5665311
2	0x3fbac2b6	1.4590671
3	0x3f1ce2a4	0.61283326
4	0x3f3dd1df	0.7414836
5	0x3f658232	0.8965179
6	0x3edb09db	0.42780957
7	0x3f24b572	0.64339364
8	0x3f3f2378	0.74663496
9	0x3f8c2ec7	1.0951775
10	0x3f25dd7c	0.64791083
11	0x3f89aca3	1.075581
12	0x3f7c9c56	0.9867605
13	0x3f9c968c	1.2233443
14	0x3f2dd49e	0.67902553
15	0x3fef2ebd	1.8686138
16	0x3f9d1ecd	1.2275025
17	0x3f52807f	0.8222732
18	0x3f1b4b1b	0.60661477
19	0x3f51142b	0.816714
20	0x3f298b4c	0.66228175
21	0x3f188e2c	0.5959194
22	0x3edfe855	0.43731943
23	0x3fa5988c	1.2937179
24	0x3f65bcf4	0.89741445
25	0x3f636b50	0.8883562
26	0x3f2e54cb	0.68098134
27	0x3f46c97e	0.776512
28	0x3f8084d6	1.0040538
29	0x3f6f4105	0.93458587
30	0x3ed22482	0.41043478
31	0x3f486f73	0.7829506
32	0x3f119df6	0.56881654
33	0x3ef64f1c	0.4810723
34	0x3f9bd749	1.2175075
35	0x3f8beb46	1.0931175
36	0x3f142f93	0.5788509
37	0x3f9308f2	1.1487105
38	0x3ee68977	0.45026752
39	0x3f19237f	0.5981979
40	0x3f33919f	0.70144075
41	0x3f09b3bb	0.5378987
42	0x3f44a84f	0.7681932
43	0x3f8d493c	1.1037974
44	0x3f185717	0.5950789
45	0x3f902706	1.1261909
46	0x3f4e0f53	0.8049213
47	0x3f67dafa	0.90568507
48	0x3fb6577c	1.4245448
49	0x3f827259	1.0191146
50	0x3ecafbef	0.39645335
51	0x3f668672	0.900489
52	0x3f0466ca	0.51719344
53	0x3f886916	1.065707
54	0x3f29a08b	0.66260594
55	0x3f59694d	0.849263
56	0x3f4f0021	0.8085957
57	0x3f38f8c8	0.7225461
58	0x3f5370f5	0.82594234
59	0x3f836b67	1.0267152
60	0x3f100871	0.5626288
61	0x3f8ad1d5	1.0845286
62	0x3f05a107	0.52198833
63	0x3f46da8f	0.77677244

fc2.weight f4 [1, 64]
0	0xbd963748	-0.07334763
1	0xbd23690d	-0.039895106
2	0xbd817f36	-0.06323092
3	0xbcb64ac7	-0.022252453
4	0xbbd84053	-0.006599465
5	0xbdcef9a6	-0.101062104
6	0xbc35f10b	-0.011104832
7	0x3d74982e	0.059715442
8	0xbddb27bc	-0.10700938
9	0xbcdb6022	-0.026779238
10	0xbd906ac8	-0.07051617
11	0xbe0d3818	-0.1379093
12	0xbe26cada	-0.16288319
13	0xbd9330f1	-0.07187069
14	0xbdd9cc06	-0.106346175
15	0xbe05d111	-0.13068034
16	0xbe2a8609	-0.16652693
17	0xbe1bab33	-0.15202026
18	0xbdd52934	-0.104082495
19	0xbe2aced2	-0.16680458
20	0xbe1bed71	-0.15227295
21	0xbdbd4f4e	-0.09243642
22	0xbd4698c3	-0.04848553
23	0x3d2ba292	0.041903086
24	0xbaacc377	-0.0013180812
25	0x3d822178	0.0635404
26	0x3d88356b	0.06650814
27	0x3c44ce4b	0.012012075
28	0xbcbedbf7	-0.023298247
29	0xbe4094ff	-0.18806837
30	0x3c5d0a8e	0.013491286
31	0x3ce89359	0.028390573
32	0xbe130dfd	-0.14360805
33	0xbe2f2e59	-0.17107524
34	0xbd2b608e	-0.04184013
35	0xbe3b9e49	-0.183221
36	0xbdf417a6	-0.11918573
37	0x3d70ddf0	0.058805406
38	0xbe217196	-0.15765986
39	0x3d9c0b39	0.07619328
40	0x3d488165	0.048951525
41	0xbe0f3024	-0.13983208
42	0xbe220f01	-0.15826036
43	0x3c976ec7	0.01848544
44	0x3d1631ce	0.03666859
45	0xbe05aff8	-0.13055408
46	0x3d668f82	0.056289203
47	0xbe00d2da	-0.12580433
48	0xbdb8b0da	-0.09018107
49	0xbd6e37db	-0.058158737
50	0xbab93945	-0.0014131448
51	0xbd22bcfd	-0.039731015
52	0xbdc657c3	-0.09684708
53	0x3d2ec3a5	0.04266705
54	0xbdee82a1	-0.11646009
55	0x3ca5b1ba	0.020226348
56	0xbe3df7ff	-0.18551634
57	0x3c7096f3	0.014684427
58	0xbd0e4209	-0.034730945
59	0xbe1fb10f	-0.15594886
60	0xbdfdeec8	-0.123990595
61	0x3c5ec2b7	0.013596228
62	0x3d8aeca4	0.06783417
63	0x3cba6f6a	0.022758204
