app/data/UserModel/krishnaaban/model.pth (torch, 56973 bytes, 10 tensors)

attention_pooling.attention.weight f4 [1, 192]
0	0xbb2952a8	-0.002583662
1	0xb7d47c5b	-2.5330277e-05
2	0xba2aae2f	-0.0006510941
3	0x3907d379	0.00012953383
4	0x3aa9f7cd	0.0012967527
5	0x3b9aac9a	0.0047202827
6	0xb71d06ef	-9.359544e-06
7	0xb8b8a1da	-8.803951e-05
8	0x381077ab	3.4443725e-05
9	0x387e8e11	6.069063e-05
10	0x3ac2fbec	0.0014876104
11	0x3aec0fe8	0.0018010112
12	0xb9a37fb0	-0.00031184917
13	0xb8d9f4c9	-0.00010392961
14	0x37df2bef	2.660413e-05
15	0xb8ef6b0c	-0.00011416347
16	0xb9d80f73	-0.0004121024
17	0x34484f70	1.865535e-07
18	0x39e249a5	0.0004316095
19	0x38ca287d	9.639652e-05
20	0xb943d8e2	-0.00018677444
21	0xb8e66eaa	-0.000109878674
22	0xb9edb8b5	-0.0004534178
23	0xbbbd38d9	-0.005774599
24	0xb8ec1258	-0.00011256774
25	0x3885ec34	6.3859305e-05
26	0xb8bd4f63	-9.027009e-05
27	0x39602b04	0.00021378329
28	0x388f9fa4	6.848507e-05
29	0xb8508ef3	-4.9724196e-05
30	0xb8dbcb3d	-0.0001048059
31	0x382635da	3.9627637e-05
32	0x39e37af0	0.0004338841
33	0xb891c39a	-6.9505724e-05
34	0xb8056ade	-3.18092e-05
35	0xbb8454e2	-0.004038439
36	0xb8cf39e7	-9.881314e-05
37	0x398162ff	0.00024678555
38	0x399febac	0.00030502432
39	0x389bfe0b	7.438295e-05
40	0xb9da1c0b	-0.00041601094
41	0x3885f02b	6.386669e-05
42	0xb7b6b24a	-2.1779113e-05
43	0x38b6e194	8.7204535e-05
44	0xb80a2cb6	-3.2943404e-05
45	0x38dde37c	0.000105804735
46	0x3702eaab	7.803242e-06
47	0xb772b6d1	-1.4466889e-05
48	0xba395c06	-0.00070709025
49	0x3b0d6633	0.0021575808
50	0x3b10acb3	0.0022075593
51	0xbb7ec4af	-0.0038874557
52	0x39ece95a	0.00045187288
53	0x3b382cc8	0.0028102864
54	0x387d5c94	6.040612e-05
55	0x3907efd8	0.00012963952
56	0x39d5fde1	0.0004081568
57	0xb887b8f6	-6.471753e-05
58	0x39171d9d	0.00014411514
59	0xb8d2bda5	-0.000100489044
60	0x39a00ca5	0.00030527
61	0x39d5530f	0.0004068841
62	0xbb155128	-0.0022783969
63	0xb83a3d94	-4.4403205e-05
64	0x38c4673d	9.365238e-05
65	0x3942f436	0.00018592257
66	0x3aa53bc0	0.0012606308
67	0xb80be67f	-3.335485e-05
68	0xb881ad15	-6.1834384e-05
69	0xb79200ca	-1.7404924e-05
70	0xb8c4d77a	-9.386144e-05
71	0x39dbb1fb	0.0004190354
72	0xb9184650	-0.00014522043
73	0x371abb13	9.222672e-06
74	0x360a7688	2.0632597e-06
75	0xb7043b9b	-7.881691e-06
76	0xb9c83c35	-0.0003819183
77	0xb84a0831	-4.8168182e-05
78	0x377676a8	1.4690369e-05
79	0x3935033b	0.00017262709
80	0xb83f21af	-4.556932e-05
81	0x39649aee	0.0002180149
82	0xba352a46	-0.0006910901
83	0xba55df4c	-0.0008158579
84	0x3bba7787	0.0056905183
85	0x3a66764b	0.0008791431
86	0xbb6f74e8	-0.0036538187
87	0x3a619592	0.00086053566
88	0x3919523d	0.00014621853
89	0xb93bf35c	-0.00017924368
90	0x39ec0fca	0.00045025192
91	0xbb6bcae1	-0.003597908
92	0x38184064	3.6299592e-05
93	0xb6c7e6ba	-5.9575223e-06
94	0xb9c9d378	-0.00038495264
95	0x3906af42	0.00012844524
96	0xbaa7e1f6	-0.001280843
97	0x370d42f3	8.419843e-06
98	0x39420953	0.00018504755
99	0x3b801bd7	0.003909569
100	0xb9a38fe4	-0.0003119699
101	0xb8daf94e	-0.00010441487
102	0xb93ac760	-0.00017812615
103	0xbabf0c2c	-0.0014575771
104	0xbb2fd72a	-0.0026831129
105	0x39309281	0.00016839245
106	0x38e5ca60	0.00010957266
107	0xbb047830	-0.002021324
108	0xb95abe1a	-0.00020860918
109	0xb8028074	-3.1114047e-05
110	0x3987f290	0.0002592993
111	0xb9a7a3f4	-0.00031974877
112	0x3aeaedeb	0.0017923688
113	0xb8c658a0	-9.4578834e-05
114	0x38a276ca	7.746888e-05
115	0xb71c63a6	-9.321526e-06
116	0xb9cb8966	-0.00038821547
117	0x38c4ddb2	9.387302e-05
118	0x3ae2ddbb	0.0017308512
119	0xb918e9f9	-0.00014583011
120	0x3a8e321d	0.0010848675
121	0xb8487c96	-4.7799746e-05
122	0xb7277242	-9.980578e-06
123	0xb9b3c3c7	-0.00034287406
124	0xb928cf6f	-0.00016099004
125	0xb920f1a5	-0.00015348809
126	0xb7e8a7ab	-2.7734632e-05
127	0xb9e26680	-0.00043182448
128	0xbaef4b04	-0.0018256609
129	0xb9a61c89	-0.00031683248
130	0xb91aac26	-0.00014750715
131	0x37b2ee03	2.1330086e-05
132	0x3a27692e	0.00063862174
133	0xb897ac7c	-7.232369e-05
134	0xb98c1c79	-0.00026724095
135	0xb8072b4e	-3.222684e-05
136	0xbbc1df73	-0.00591653
137	0x3ab77524	0.0013996703
138	0x3aa3fa87	0.0012510576
139	0xb94563d8	-0.00018824579
140	0xb87fb3f3	-6.096433e-05
141	0x39ec03ca	0.0004501625
142	0xb9004c71	-0.00012235508
143	0x3867e580	5.528843e-05
144	0x393c12ff	0.00017936154
145	0x38ecde1c	0.00011294728
146	0x3aa3d77c	0.0012500132
147	0xb8d8d14a	-0.00010338666
148	0x3930d9f2	0.00016865859
149	0x37f2f156	2.8961029e-05
150	0x393f585b	0.00018248094
151	0xb7cf1fd6	-2.4691148e-05
152	0x3bc3c69e	0.0059746047
153	0xb8ab41e8	-8.1661914e-05
154	0xb90613ab	-0.00012786563
155	0xb7e688c5	-2.7481825e-05
156	0x3795c4c6	1.7853814e-05
157	0x39bcfe5f	0.00036047676
158	0x37bacbf8	2.2267908e-05
159	0x3888da95	6.5256994e-05
160	0xb93b6eca	-0.00017874982
161	0xb6d58ac2	-6.364048e-06
162	0xb9ed7934	-0.00045294466
163	0x393f3a5d	0.00018236921
164	0x385d1874	5.271328e-05
165	0xb9807cfe	-0.0002450719
166	0x382ac7ce	4.071724e-05
167	0x39c58557	0.00037674114
168	0xb9edb928	-0.00045342115
169	0xb7605760	-1.3371784e-05
170	0x39896f40	0.00026213564
171	0x37e448c0	2.7213595e-05
172	0x3a932435	0.0011226
173	0xb7d9acdf	-2.5948915e-05
174	0xb9b31e90	-0.0003416431
175	0xb9ebb16d	-0.00044954885
176	0x368897ba	4.070779e-06
177	0x377e6a10	1.5164274e-05
178	0x39ed46ef	0.00045257012
179	0xb9274070	-0.00015950366
180	0xb8a3131c	-7.776005e-05
181	0xb9ed5e38	-0.0004527436
182	0x3a89f69c	0.0010525766
183	0x38634126	5.418169e-05
184	0xb9e4df30	-0.00043653836
185	0xbb912481	-0.0044294004
186	0xbba734fa	-0.005102751
187	0x37cb2078	2.4214605e-05
188	0xb7dd1131	-2.6353258e-05
189	0x391085c0	0.00013782736
190	0x39af879c	0.00033479638
191	0xb95d0bcc	-0.00021080597

attention_pooling.layer_norm.weight f4 [192]
0	0x3f7bcd41	0.9836007
1	0x3f80a279	1.0049583
2	0x3f7eafc9	0.99486977
3	0x3f7cdfb0	0.9877882
4	0x3f7ee75c	0.99571776
5	0x3f7fb56e	0.99886215
6	0x3f7f65ef	0.99764913
7	0x3f7f944f	0.99835676
8	0x3f801a40	1.0008011
9	0x3f7ec2d7	0.9951605
10	0x3f7eba91	0.9950343
11	0x3f7f4642	0.9971658
12	0x3f805bd1	1.002802
13	0x3f81e5e9	1.0148288
14	0x3f80b603	1.0055546
15	0x3f81f79c	1.0153689
16	0x3f7fa4b7	0.9986071
17	0x3f7e487a	0.9932934
18	0x3f7d5ade	0.9896678
19	0x3f813439	1.0094062
20	0x3f80ab74	1.0052323
21	0x3f8158e6	1.0105255
22	0x3f7da8b7	0.99085563
23	0x3f7eca97	0.9952788
24	0x3f8004ad	1.0001427
25	0x3f802690	1.0011768
26	0x3f807f5c	1.0038867
27	0x3f7d6a90	0.98990726
28	0x3f7fd7b9	0.9993854
29	0x3f7f4528	0.997149
30	0x3f8065bc	1.0031047
31	0x3f81ad5c	1.013103
32	0x3f7ecdeb	0.99532956
33	0x3f7ad75f	0.9798488
34	0x3f7e8571	0.99422365
35	0x3f8040c7	1.0019768
36	0x3f7f511c	0.9973314
37	0x3f7d5644	0.98959756
38	0x3f8196d1	1.012415
39	0x3f7e4e59	0.993383
40	0x3f7f9886	0.9984211
41	0x3f7fa65b	0.99863213
42	0x3f812a39	1.009101
43	0x3f80277e	1.0012052
44	0x3f7ebb2d	0.9950436
45	0x3f7ec1ac	0.9951427
46	0x3f805193	1.0024894
47	0x3f7d80d8	0.99024725
48	0x3f7ecdb2	0.99532616
49	0x3f7ee601	0.9956971
50	0x3f7fee13	0.9997265
51	0x3f7f394a	0.9969679
52	0x3f8016a8	1.0006914
53	0x3f811a1c	1.0086093
54	0x3f7d5572	0.98958504
55	0x3f800331	1.0000974
56	0x3f80afe0	1.0053673
57	0x3f7e3507	0.99299663
58	0x3f800f26	1.0004623
59	0x3f7f829d	0.99808675
60	0x3f7ff460	0.9998226
61	0x3f8128aa	1.0090535
62	0x3f82334e	1.0171907
63	0x3f801811	1.0007344
64	0x3f7e8330	0.99418926
65	0x3f7e29a5	0.99282295
66	0x3f81e27e	1.0147245
67	0x3f800211	1.0000631
68	0x3f814c7a	1.0101464
69	0x3f7d7ff9	0.99023396
70	0x3f7e7940	0.9940376
71	0x3f814e7b	1.0102075
72	0x3f80192a	1.000768
73	0x3f7e7f8d	0.9941338
74	0x3f7e7f17	0.99412674
75	0x3f7f6f48	0.99779177
76	0x3f802f64	1.0014462
77	0x3f80f5e3	1.0075039
78	0x3f80bd69	1.0057803
79	0x3f818a23	1.0120281
80	0x3f7d948b	0.99054784
81	0x3f7e805e	0.9941462
82	0x3f7f683a	0.9976841
83	0x3f80f666	1.0075195
84	0x3f7fb43d	0.99884397
85	0x3f7f0568	0.99617624
86	0x3f7d0f58	0.9885154
87	0x3f7f9825	0.9984153
88	0x3f817883	1.0114902
89	0x3f7cde05	0.98776275
90	0x3f81d963	1.0144466
91	0x3f828bd7	1.0198926
92	0x3f805e84	1.0028844
93	0x3f811471	1.0084363
94	0x3f7d503b	0.98950547
95	0x3f7fa063	0.99854106
96	0x3f80ac3f	1.0052565
97	0x3f804034	1.0019593
98	0x3f804a18	1.0022612
99	0x3f80ee2c	1.0072684
100	0x3f80c59a	1.0060303
101	0x3f7f3db9	0.99703556
102	0x3f80dd48	1.006753
103	0x3f807241	1.0034868
104	0x3f80d495	1.0064875
105	0x3f7e203c	0.99267936
106	0x3f803934	1.0017457
107	0x3f7e4f5a	0.9933983
108	0x3f7fe3ff	0.9995727
109	0x3f7d0b64	0.98845506
110	0x3f7d8fe1	0.99047667
111	0x3f814279	1.0098411
112	0x3f8113cf	1.008417
113	0x3f7fc82e	0.99914825
114	0x3f7e8346	0.9941906
115	0x3f8024b1	1.0011197
116	0x3f810d56	1.0082195
117	0x3f802a24	1.001286
118	0x3f7ed40b	0.995423
119	0x3f802eaa	1.0014241
120	0x3f80170e	1.0007036
121	0x3f7c760e	0.9861764
122	0x3f802e20	1.0014076
123	0x3f7e1a76	0.99259126
124	0x3f7e92fc	0.9944303
125	0x3f7f5dec	0.9975269
126	0x3f7dcc97	0.99140304
127	0x3f7e80f1	0.994155
128	0x3f7f42b1	0.9971114
129	0x3f7f799d	0.9979494
130	0x3f7e2c7f	0.99286646
131	0x3f80353f	1.001625
132	0x3f815656	1.0104473
133	0x3f7df7ec	0.99206424
134	0x3f7e22ad	0.9927166
135	0x3f7ee8ad	0.99573785
136	0x3f7d78ee	0.9901265
137	0x3f7f2647	0.9966778
138	0x3f815017	1.0102566
139	0x3f8045f8	1.0021353
140	0x3f7e0449	0.9922529
141	0x3f7e724c	0.99393153
142	0x3f7f65a7	0.99764484
143	0x3f7f87d6	0.99816644
144	0x3f7c5c07	0.9857792
145	0x3f7b79a4	0.98232484
146	0x3f807dd2	1.0038397
147	0x3f8069b9	1.0032264
148	0x3f7f7c34	0.99798894
149	0x3f801933	1.000769
150	0x3f7ff9e2	0.99990666
151	0x3f7e8eac	0.9943645
152	0x3f8040b4	1.0019746
153	0x3f81b6ca	1.0133908
154	0x3f7f9069	0.9982973
155	0x3f812409	1.0089122
156	0x3f7d8944	0.99037576
157	0x3f800ee3	1.0004543
158	0x3f7f85d2	0.9981357
159	0x3f81d05c	1.0141711
160	0x3f801371	1.0005933
161	0x3f7c72cb	0.9861266
162	0x3f7fa407	0.9985966
163	0x3f7fb594	0.9988644
164	0x3f816a34	1.0110536
165	0x3f7f8c82	0.9982377
166	0x3f80720c	1.0034804
167	0x3f7c0513	0.9844524
168	0x3f7d7724	0.9900992
169	0x3f7ffd64	0.9999602
170	0x3f7e55ed	0.9934986
171	0x3f80e317	1.0069302
172	0x3f7f815f	0.9980678
173	0x3f802f2d	1.0014397
174	0x3f7ca6de	0.9869212
175	0x3f804045	1.0019614
176	0x3f7fbbf3	0.9989616
177	0x3f7d3d20	0.98921394
178	0x3f7f5abf	0.9974784
179	0x3f80bb75	1.0057207
180	0x3f7edaf7	0.99552864
181	0x3f805b6c	1.00279
182	0x3f7de656	0.9917959
183	0x3f80d029	1.0063525
184	0x3f812794	1.0090203
185	0x3f801886	1.0007484
186	0x3f7e14fd	0.99250776
187	0x3f7f7030	0.9978056
188	0x3f8109d1	1.0081121
189	0x3f7c9ec4	0.9867976
190	0x3f808c9d	1.0042912
191	0x3f805308	1.0025339

attention_pooling.layer_norm.bias f4 [192]
0	0xb687a026	-4.0419573e-06
1	0xb63ec2d6	-2.8425616e-06
2	0xb7940901	-1.7647168e-05
3	0xb72ab3f6	-1.017469e-05
4	0xb641dc6d	-2.8887546e-06
5	0xb6e1d093	-6.7298038e-06
6	0xb633e294	-2.6804964e-06
7	0x3690f1eb	4.3196974e-06
8	0x3777df43	1.4774329e-05
9	0xb6f248f6	-7.220656e-06
10	0x338778c0	6.308392e-08
11	0xb6439d46	-2.914881e-06
12	0x3682d44a	3.8990156e-06
13	0xb66a0cee	-3.4876243e-06
14	0xb72c4b74	-1.0269567e-05
15	0xb7484d76	-1.1938964e-05
16	0xb7163588	-8.95316e-06
17	0x36cca0fc	6.098415e-06
18	0xb6b18f1b	-5.2916707e-06
19	0x3642347e	2.8938807e-06
20	0xb6bb6d98	-5.5857927e-06
21	0x34557510	1.9879758e-07
22	0xb62b3f30	-2.5517766e-06
23	0xb79ee00a	-1.8939394e-05
24	0xb722b533	-9.698141e-06
25	0x35045c18	4.9307846e-07
26	0xb4a467a4	-3.062279e-07
27	0xb627c1da	-2.4997776e-06
28	0xb69304d4	-4.3815035e-06
29	0x350f225c	5.332165e-07
30	0x377806a1	1.4783495e-05
31	0xb7518dee	-1.2490416e-05
32	0x374ba1e6	1.2137438e-05
33	0x35dff0b6	1.6684851e-06
34	0xb730f489	-1.0547353e-05
35	0x36f7b716	7.3824876e-06
36	0x3768a8cf	1.3867581e-05
37	0xb6f0f38e	-7.180911e-06
38	0xb6ee2548	-7.097293e-06
39	0x36b79dde	5.472203e-06
40	0xb70c8b15	-8.377033e-06
41	0x35edc077	1.7713891e-06
42	0xb6b0938a	-5.2623845e-06
43	0x36529a29	3.1382172e-06
44	0xb61ac3e3	-2.306181e-06
45	0x368ce551	4.199021e-06
46	0x37139e08	8.798677e-06
47	0x362cd285	2.5752536e-06
48	0x360492ac	1.9754907e-06
49	0xb7705cdc	-1.4326735e-05
50	0xb50b0bb0	-5.179854e-07
51	0x36091e91	2.0432383e-06
52	0xb60a01e1	-2.0564696e-06
53	0x36b3bd69	5.356666e-06
54	0x3697c224	4.5227516e-06
55	0x3659595f	3.238754e-06
56	0xb61d073c	-2.3399034e-06
57	0xb6159fb3	-2.2295687e-06
58	0x3752ecd5	1.2572117e-05
59	0xb5ed6ddc	-1.7689849e-06
60	0x3443817e	1.8207899e-07
61	0xb50c9c0c	-5.238114e-07
62	0xb6aa5588	-5.076352e-06
63	0x36907307	4.3049254e-06
64	0x376a4097	1.3962525e-05
65	0x3692d238	4.3756118e-06
66	0x37218ab3	9.628641e-06
67	0xb682c8d9	-3.8976837e-06
68	0xb6b0c9f8	-5.268721e-06
69	0x36ae9b89	5.2037108e-06
70	0x368c8884	4.1882176e-06
71	0xb64dca92	-3.0665292e-06
72	0xb726d878	-9.944772e-06
73	0xb6a76e04	-4.9897953e-06
74	0xb568d608	-8.673819e-07
75	0x369f425e	4.7462954e-06
76	0xb6c109d1	-5.752991e-06
77	0xb7360b2d	-1.0850647e-05
78	0x369dce32	4.702969e-06
79	0x374151c1	1.1522731e-05
80	0xb64f1fc9	-3.0863905e-06
81	0xb7143220	-8.833158e-06
82	0xb6f64989	-7.339932e-06
83	0xb6c84512	-5.9685053e-06
84	0x37403c27	1.1458097e-05
85	0x35db6a67	1.6347739e-06
86	0xb75a3f4e	-1.3008552e-05
87	0x35c8c207	1.4957631e-06
88	0xb6b07cce	-5.259738e-06
89	0xb5e1a21c	-1.6810986e-06
90	0xb62b9d72	-2.557263e-06
91	0xb7636fb8	-1.3556266e-05
92	0x36ecc234	7.0559563e-06
93	0x36604070	3.3416109e-06
94	0xb6bbab5c	-5.592983e-06
95	0xb7211360	-9.600859e-06
96	0xb74c08b6	-1.2161376e-05
97	0xb7103def	-8.597489e-06
98	0x35ffbc21	1.9053733e-06
99	0xb6f3b23e	-7.2627145e-06
100	0x3680c50a	3.8376356e-06
101	0x363dcb16	2.8281406e-06
102	0xb6825e66	-3.8852913e-06
103	0x37084c69	8.124022e-06
104	0xb6cfcfc0	-6.193266e-06
105	0x3743879c	1.165448e-05
106	0x35932a70	1.0964704e-06
107	0xb699edcc	-4.5874385e-06
108	0x36b2c2d0	5.3274925e-06
109	0xb61f6374	-2.3750736e-06
110	0x36c88144	5.975513e-06
111	0xb769a207	-1.3925607e-05
112	0x3662bb71	3.378573e-06
113	0x3697aad4	4.5200377e-06
114	0xb5f90210	-1.8552546e-06
115	0xb633b599	-2.6778782e-06
116	0x36e69786	6.872174e-06
117	0x367cda62	3.7678042e-06
118	0xb514c814	-5.542545e-07
119	0x35898134	1.0244898e-06
120	0x372f985c	1.0466287e-05
121	0x362449e2	2.448091e-06
122	0x3650a701	3.1091624e-06
123	0xb706cd3f	-8.03481e-06
124	0xb745e587	-1.1795556e-05
125	0x34f015b5	4.4719278e-07
126	0x342b4e80	1.5954174e-07
127	0xb670432e	-3.580189e-06
128	0x3677462d	3.6846716e-06
129	0x37104ba8	8.600684e-06
130	0x379eed32	1.894552e-05
131	0x3716ed50	8.99595e-06
132	0x377a49b4	1.49183215e-05
133	0x35216a84	6.0132174e-07
134	0x37501ce7	1.24044955e-05
135	0x34af15f4	3.2612263e-07
136	0xb69c6c1f	-4.6617492e-06
137	0xb68ce8f9	-4.1994467e-06
138	0x374e5fe3	1.2300882e-05
139	0xb6006c31	-1.9136462e-06
140	0xb640bbd0	-2.871955e-06
141	0x377d68f4	1.5104411e-05
142	0x3794e872	1.7751216e-05
143	0xb6fa3643	-7.4568975e-06
144	0x36801177	3.8167304e-06
145	0x35847496	9.868697e-07
146	0x356f1f01	8.9079555e-07
147	0x34f072c8	4.4786998e-07
148	0xb6493ffd	-2.998858e-06
149	0x37428c50	1.159597e-05
150	0xb79e99aa	-1.8906623e-05
151	0xb3941d80	-6.897153e-08
152	0xb6b07d4e	-5.259796e-06
153	0xb738c80f	-1.1013834e-05
154	0x3642c6d7	2.9023993e-06
155	0xb6ab81ff	-5.1113307e-06
156	0xb6c7d344	-5.9552567e-06
157	0xb618d8e4	-2.2776012e-06
158	0x37796cd8	1.4866899e-05
159	0x3710c654	8.629246e-06
160	0xb57df877	-9.461141e-07
161	0xb6ba2cdd	-5.5484547e-06
162	0x3560eac0	8.378811e-07
163	0xb67d14cf	-3.771205e-06
164	0xb744c40a	-1.1728154e-05
165	0x37226bae	9.681024e-06
166	0xb742379f	-1.1576251e-05
167	0xb60dcc8e	-2.1129704e-06
168	0xb65da022	-3.3024776e-06
169	0xb74259fd	-1.1584253e-05
170	0x361ed833	2.366968e-06
171	0x37376aeb	1.0932544e-05
172	0x36bd6b1a	5.645107e-06
173	0x370ce527	8.398004e-06
174	0x36890597	4.083569e-06
175	0x37727b24	1.4452995e-05
176	0xb65fa3af	-3.3324866e-06
177	0x3723d796	9.765752e-06
178	0x35570320	8.009829e-07
179	0xb4b52f90	-3.3748483e-07
180	0x37412362	1.1511935e-05
181	0x36351771	2.6984746e-06
182	0xb5f61328	-1.8334003e-06
183	0xb6475d1e	-2.9707512e-06
184	0xb6c4fa15	-5.8703686e-06
185	0x3729fcc6	1.0132038e-05
186	0x366d566e	3.536606e-06
187	0xb5c96e84	-1.5007831e-06
188	0xb732b4ca	-1.065172e-05
189	0xb6bbe804	-5.6000445e-06
190	0xb6dded04	-6.6139055e-06
191	0xb5cb33b6	-1.5139728e-06

fc1.weight f4 [64, 192]
0	0x3d54dd29	0.051968727
1	0xbd510518	-0.05103025
2	0xbd8cc890	-0.06874192
3	0xbcccc3e2	-0.024995748
4	0x3d528cd1	0.051403824
5	0x3d167a83	0.03673793
6	0xbcc66c14	-0.024221458
7	0x3d561c88	0.052273303
8	0x3d660f76	0.05616709
9	0x3d0fb998	0.035089105
10	0x3c61f9de	0.013792483
11	0xba26b46b	-0.0006359282
12	0xbd88ab43	-0.066732906
13	0x3d9a07e1	0.07521034
14	0xbd966e4f	-0.073452584
15	0xbd19cfd2	-0.03755171
16	0xbc9f482d	-0.019443596
17	0xbca48280	-0.020081758
18	0x3d3a4671	0.045477334
19	0xbd27df35	-0.04098435
20	0xbd2c54fd	-0.04207324
21	0xbce80f6e	-0.02832767
22	0xbd92257d	-0.071360566
23	0xbd082c1b	-0.033245187
24	0xbcaf37d3	-0.021388924
25	0xbc823539	-0.01589452
26	0xbd164970	-0.03669113
27	0xbd2c4cf1	-0.042065565
28	0xbc3e10bd	-0.01160067
29	0x3d54b42b	0.051929634
30	0xbd2a85ce	-0.041631512
31	0xb8f8f6bc	-0.000118715194
32	0xbd91e887	-0.07124429
33	0xbc925622	-0.017863337
34	0x3d966f04	0.07345393
35	0x3c454975	0.012041439
36	0x3d9a7737	0.0754227
37	0xbd149432	-0.036274143
38	0xbcb78b39	-0.022405254
39	0xbd81b481	-0.063332565
40	0x3d4f19e1	0.05056179
41	0x3c523af6	0.01283144
42	0x3c990ab9	0.01868187
43	0xbc3e9a31	-0.011633442
44	0xbd792eed	-0.060835768
45	0x3d1ff3c7	0.039050844
46	0xbd81950a	-0.06327255
47	0xbc8487a5	-0.016177962
48	0xbd18435f	-0.037173625
49	0x3d4c4b96	0.049876772
50	0x3cd52da8	0.026022747
51	0xbd0a1779	-0.03371379
52	0xbd0b3802	-0.03398896
53	0xbd51b23c	-0.05119537
54	0xbc741689	-0.014897951
55	0x3a620321	0.0008621682
56	0xbd9f2726	-0.07771139
57	0xbd298c4a	-0.041393556
58	0x3d6dd4f0	0.0580644
59	0x3a75689b	0.0009361596
60	0x3cfdeac8	0.030995741
61	0xbd3b8b85	-0.045787353
62	0xbbbdf1bb	-0.005796639
63	0x3c8aa574	0.016924597
64	0xb81177a4	-3.4682118e-05
65	0xbd882ee1	-0.066495664
66	0x3d91e2e9	0.07123358
67	0xbca19067	-0.019722177
68	0x3d7ad71c	0.0612403
69	0xbd6d01c0	-0.057862997
70	0xbd84cf79	-0.06484885
71	0xbcd55295	-0.026040355
72	0x3cc820c8	0.024429694
73	0xbd3cc364	-0.046084777
74	0x3d3c26e7	0.045935538
75	0x3cc50ae8	0.024053052
76	0xbd919d83	-0.07110121
77	0xbcd31245	-0.025765548
78	0x3cc6cf1a	0.024268676
79	0xbc8b6c32	-0.017019365
80	0x3d86657b	0.065623246
81	0x3cfe353f	0.03103125
82	0x3d803ad3	0.0626122
83	0xbaa9ae64	-0.0012945649
84	0xbd8a21be	-0.06744717
85	0x3d62d52b	0.055379074
86	0x3d195c1e	0.037441365
87	0x3d430810	0.04761511
88	0x3c641fd4	0.013923604
89	0xbd8eed04	-0.06978801
90	0x3d4cb68f	0.04997879
91	0x3d9667c9	0.07344014
92	0x3d7837f8	0.06060025
93	0xbceddf2a	-0.029037077
94	0x3c2258a4	0.009908829
95	0x3d430293	0.047609877
96	0xbd38fa20	-0.045160413
97	0xbcf630c6	-0.030052554
98	0x3d89e3d7	0.0673291
99	0x3d810426	0.062996194
100	0x3c8c8b7f	0.01715636
101	0xbc911e28	-0.017714575
102	0x3c5182d5	0.01278754
103	0xbd895397	-0.067053966
104	0x3c0d86f5	0.008638133
105	0xbb55cad6	-0.003262212
106	0x3c868638	0.016421422
107	0x3d90319c	0.07040712
108	0x3d793cb9	0.060848925
109	0x3cf24d4f	0.02957788
110	0xbbe6121b	-0.0070212013
111	0xbd19617b	-0.03744648
112	0xbc6063c5	-0.013695662
113	0x3bc4b2c4	0.006002756
114	0xbb9f1a0a	-0.004855399
115	0x3d848220	0.06470132
116	0x3ca30110	0.019897968
117	0xbcb75ad6	-0.022382181
118	0x3aa78968	0.0012782039
119	0xbcd1ecd5	-0.025625626
120	0xbc0ad0f3	-0.008472669
121	0xbd432bbd	-0.047649134
122	0xbd29f97b	-0.04149769
123	0xbcbef561	-0.023310365
124	0xbd9ba83d	-0.07600448
125	0x3c9174d2	0.0177559
126	0x3cd984de	0.026552614
127	0xbd14af9f	-0.036300298
128	0x3d0ec0cc	0.034851834
129	0xbd8e6b12	-0.06954016
130	0x3d80a2a1	0.06281019
131	0xbd2c1dd1	-0.042020623
132	0xbd911835	-0.07084695
133	0x3c210eb3	0.009830165
134	0xbd08da59	-0.033411358
135	0x3cb6a248	0.022294179
136	0xbc3ba733	-0.011453438
137	0xbd7abccc	-0.061215207
138	0xbbe69ec3	-0.007037969
139	0xbd84a28a	-0.06476314
140	0xbd965920	-0.07341218
141	0x3d277e26	0.04089179
142	0x3d9e8d6d	0.077418186
143	0xbd52b486	-0.05144169
144	0xbbf4bb3e	-0.00746861
145	0xbd96ef71	-0.073698886
146	0xbd05a789	-0.032630477
147	0x3c67cb67	0.014147616
148	0x3d9786c0	0.073987484
149	0xbc50aa62	-0.012735935
150	0xbd7273e7	-0.059192564
151	0x3d921cb7	0.07134383
152	0x3cb2a760	0.021808326
153	0xbcae1ac0	-0.02125299
154	0x3d83eab2	0.06441249
155	0x3c0b1c1a	0.008490587
156	0xbd440320	-0.047854543
157	0x3c32a993	0.010904687
158	0xbd196be8	-0.037456423
159	0x3d0d87b3	0.03455324
160	0x3d1ee41e	0.03879177
161	0x3cdee74f	0.027209906
162	0x3d4d0bfd	0.05006026
163	0xbc346508	-0.011010416
164	0x3d86fbe7	0.06591015
165	0x3d1a0ed3	0.037611794
166	0xbd2db5e6	-0.0424098
167	0xbd956016	-0.072937176
168	0x3c665911	0.014059321
169	0x3d6da09a	0.05801449
170	0x3bc1175b	0.0058926768
171	0xbd0196da	-0.031638004
172	0x3c7a2a15	0.015268822
173	0x3bf1d5dc	0.0073802304
174	0xbd54da7b	-0.05196617
175	0x3d324229	0.043520126
176	0x3ce576ff	0.028010843
177	0xbd31c41f	-0.043399926
178	0xbd6e3975	-0.058160264
179	0xbbd5caf6	-0.006524439
180	0x3d87cfe8	0.06631452
181	0xbd3617ef	-0.04445642
182	0xbd473e57	-0.048643436
183	0x3d221ec6	0.03958013
184	0xbd8805ac	-0.06641707
185	0x3d648073	0.05578656
186	0x3c5b07d5	0.0133685665
187	0xbd77f92c	-0.060540363
188	0xbd174d50	-0.036938965
189	0x3d7d7e01	0.061887745
190	0xbd1d7099	-0.03843746
191	0xbca19212	-0.019722972
192	0xbbbe94ed	-0.005816093
193	0xbd3c0a9a	-0.045908548
194	0xbd4bedd8	-0.049787372
195	0x3c40e730	0.011773869
196	0xbd2d8988	-0.04236749
197	0x3d6a7128	0.05723682
198	0x3b0fd677	0.00219479
199	0xbd0a4534	-0.033757403
200	0xbc983f69	-0.018584924
201	0x3d99df55	0.075133
202	0x3d492baa	0.049113907
203	0xbb4e62d9	-0.0031492023
204	0x3caf508f	0.021400718
205	0x3b9f9a1a	0.0048706653
206	0x3d4598f3	0.048241567
207	0x3cf3767d	0.029719586
208	0x3d31d73f	0.043418165
209	0x3d416887	0.047218826
210	0xbca8d7d4	-0.020610727
211	0x3d5c5ce1	0.053799514
212	0xbcf3c120	-0.029755175
213	0xbd841153	-0.06448617
214	0x3d4de9e3	0.05027188
215	0x3c94b8af	0.01815447
216	0xbcd2b5ea	-0.025721509
217	0xbcce6cd6	-0.025198381
218	0x3c506542	0.012719454
219	0x3c95e9e8	0.018300012
220	0x3d59db60	0.053187728
221	0xbd706d16	-0.058697782
222	0x3cc42db0	0.023947567
223	0x3d903439	0.07041211
224	0x3c3b7b81	0.01144302
225	0x3d346921	0.04404557
226	0x3c5c2589	0.013436683
227	0x3cfca3e1	0.030839862
228	0x3ba917f6	0.005160327
229	0x3d35fd71	0.044431154
230	0x3d92bea9	0.07165272
231	0xbd374a95	-0.04474886
232	0xbbf20567	-0.007385898
233	0x3d7ef885	0.062248725
234	0xbc6bd0d0	-0.0143930465
235	0x3d79b007	0.06095889
236	0x3cbc175f	0.022960363
237	0x3d78e5e4	0.060766116
238	0x3d025606	0.03182032
239	0x3d063c83	0.032772552
240	0xbd944d7f	-0.07241344
241	0xbcd2d194	-0.0257347
242	0x3c818f0d	0.015815282
243	0x3d80592e	0.0626701
244	0xbc092aed	-0.008372051
245	0xbc8ee269	-0.017441945
246	0x3d8d2156	0.06891124
247	0x3cc7911a	0.024361182
248	0xbc234043	-0.009964052
249	0xbd03b79f	-0.032157537
250	0x3c74f7da	0.014951671
251	0x3d66db54	0.05636151
252	0xbd0ad77a	-0.0338969
253	0x3d986b8d	0.07442389
254	0xbd0bdaac	-0.03414409
255	0x3d119742	0.03554464

fc1.bias f4 [64]
0	0x38d1186c	9.9704455e-05
1	0x3a52b6ad	0.0008038085
2	0x3b2a0134	0.0025940659
3	0xb5d50570	-1.5871319e-06
4	0xb9444f8f	-0.00018721654
5	0xb9a2837a	-0.00030997006
6	0xb80715de	-3.2206874e-05
7	0x3915af4e	0.00014275053
8	0x38cdce68	9.813608e-05
9	0xb76c9922	-1.410235e-05
10	0x3b8e3030	0.0043392405
11	0x39d93850	0.0004143142
12	0xb84d05af	-4.8881102e-05
13	0x3b310c37	0.0027015337
14	0xb834fa82	-4.3148648e-05
15	0x3773cfb0	1.4532285e-05
16	0xb70d0d3d	-8.407337e-06
17	0xb7c065d6	-2.2935605e-05
18	0xb6a5b56a	-4.9385026e-06
19	0x3781e008	1.5482321e-05
20	0xbb57e8b6	-0.0032945103
21	0x381a1a64	3.674104e-05
22	0xb84b5a11	-4.8482852e-05
23	0x360ce355	2.099395e-06
24	0x37433690	1.163561e-05
25	0x38a81475	8.014675e-05
26	0xbae5248f	-0.0017482209
27	0xb8dc43b8	-0.00010503031
28	0xbb703ac5	-0.0036656123
29	0xb898fbca	-7.294824e-05
30	0x3ad7ea01	0.0016472937
31	0x3a156aba	0.00056998024
32	0x38391bff	4.413351e-05
33	0xbbb59a8b	-0.0055421046
34	0xb9221577	-0.0001545752
35	0xb92eb12c	-0.00016659935
36	0x38959fae	7.134616e-05
37	0xb8c4c5d2	-9.382855e-05
38	0x3b855542	0.0040690014
39	0x39ecf70e	0.00045197498
40	0xb6e5ebfe	-6.852205e-06
41	0x38d97c06	0.000103704675
42	0x380b7a27	3.3253946e-05
43	0x3877efee	5.911284e-05
44	0xb6b2ab8d	-5.3247845e-06
45	0x3b4a72c2	0.0030891155
46	0xba5b6a8c	-0.0008370064
47	0x38d93aeb	0.00010358341
48	0x3b7019ce	0.0036636475
49	0xb82e126a	-4.1501982e-05
50	0x383594b2	4.3292246e-05
51	0x377c232d	1.50285605e-05
52	0xb9d76569	-0.00041083552
53	0x381ac1ff	3.6897134e-05
54	0xb8833e99	-6.2582265e-05
55	0xba4b436c	-0.0007753882
56	0x3b93bfbc	0.0045089405
57	0x39d1f422	0.0004004548
58	0x37d15903	2.495619e-05
59	0x38f1ada1	0.000115241164
60	0xb90b484e	-0.00013283009
61	0xb7a1587a	-1.9233896e-05
62	0x3aa8fa93	0.001289206
63	0xb82dd79b	-4.1447212e-05

bn1.weight f4 [64]
0	0x3f8adf47	1.0849389
1	0x3f897b4a	1.074075
2	0x3f77bad4	0.9676945
3	0x3f742ca0	0.9538059
4	0x3f7da627	0.99081653
5	0x3f895dbc	1.073173
6	0x3f898a7f	1.0745391
7	0x3f89be48	1.0761194
8	0x3f8c79b8	1.0974646
9	0x3f8b3eff	1.08786
10	0x3f8963c9	1.0733577
11	0x3f896ad7	1.073573
12	0x3f8bbabd	1.0916363
13	0x3f898505	1.0743719
14	0x3f88803a	1.0664132
15	0x3f88a736	1.0676029
16	0x3f7554c8	0.9583249
17	0x3f72d6cc	0.94859004
18	0x3f8964b0	1.0733852
19	0x3f899fd9	1.0751907
20	0x3f8969aa	1.0735371
21	0x3f89e47a	1.077285
22	0x3f8bbe0c	1.0917373
23	0x3f73f6fe	0.95298755
24	0x3f89217b	1.0713342
25	0x3f898795	1.0744501
26	0x3f8c7836	1.0974185
27	0x3f78b82c	0.97156024
28	0x3f8c5fc4	1.0966725
29	0x3f73a3bb	0.9517171
30	0x3f8aaa91	1.0833303
31	0x3f75b6e9	0.95982224
32	0x3f788f93	0.97094077
33	0x3f75ecdc	0.96064544
34	0x3f770456	0.9649099
35	0x3f7661c1	0.9624291
36	0x3f73fcfd	0.95307904
37	0x3f8c2c99	1.095111
38	0x3f89a2cc	1.0752807
39	0x3f733afc	0.9501188
40	0x3f89a411	1.0753194
41	0x3f8886e3	1.0666164
42	0x3f8a05eb	1.0783056
43	0x3f897cfc	1.0741267
44	0x3f790881	0.972786
45	0x3f738ca8	0.951365
46	0x3f8b0692	1.086138
47	0x3f896e73	1.0736831
48	0x3f88ca65	1.0686766
49	0x3f8cb192	1.099169
50	0x3f761c07	0.96136516
51	0x3f747e55	0.9550527
52	0x3f8a5739	1.0807868
53	0x3f74e9ad	0.9566906
54	0x3f736c65	0.9508727
55	0x3f8b9eff	1.0907897
56	0x3f85bb38	1.044776
57	0x3f75bc49	0.95990425
58	0x3f89b866	1.0759399
59	0x3f749366	0.9553741
60	0x3f88dcc3	1.0692371
61	0x3f739305	0.9514621
62	0x3f8a4132	1.0801146
63	0x3f76e00c	0.9643562

bn1.bias f4 [64]
0	0x3dad788d	0.08470259
1	0x3d9738be	0.073838696
2	0xbcec34c1	-0.028833749
3	0xbd58f108	-0.05296424
4	0xbc9cffd2	-0.019164953
5	0x3d8fb88e	0.07017623
6	0x3d96661d	0.07343695
7	0x3d9926cd	0.07478104
8	0x3dc918c3	0.09819176
9	0x3da78980	0.08180523
10	0x3d94fcf1	0.07274807
11	0x3d92fff4	0.071777254
12	0x3dbb7b55	0.09154383
13	0x3d96000b	0.07324227
14	0x3d86747b	0.06565186
15	0x3d8730b6	0.06601088
16	0xbd416a3e	-0.04722046
17	0xbd83fe89	-0.06445033
18	0x3d95dd2a	0.07317574
19	0x3d988ae8	0.07448369
20	0x3d9632cd	0.07333908
21	0x3d9822a8	0.07428485
22	0x3dbec66a	0.09315188
23	0xbd4a7ff7	-0.049438443
24	0x3d93f59b	0.0722458
25	0x3d97e96d	0.07417569
26	0x3dca32c6	0.098729655
27	0xbccf2259	-0.025284933
28	0x3dc3bf71	0.09557999
29	0xbd48eb34	-0.049052432
30	0x3da5427b	0.08069321
31	0xbd28ab4e	-0.041178994
32	0xbd0346d2	-0.03204996
33	0xbd2b0bcf	-0.04175931
34	0xbd18b3e1	-0.03728092
35	0xbd5ebe0a	-0.054380454
36	0xbd4cda4b	-0.050012868
37	0x3dc295ae	0.095012054
38	0x3d9910cb	0.07473906
39	0xbd870162	-0.065920606
40	0x3d956c1f	0.07296013
41	0x3d879100	0.066194534
42	0x3d9d91f7	0.07693856
43	0x3d973bbd	0.07384441
44	0xbcbfcf40	-0.023414254
45	0xbd70fdf7	-0.05883595
46	0x3daf4ab8	0.08559173
47	0x3d922b98	0.07137221
48	0x3d8b186f	0.0679177
49	0x3dcbab19	0.09944744
50	0xbd53794b	-0.051629346
51	0xbd490cc8	-0.049084455
52	0x3da40bbc	0.08010051
53	0xbd58233e	-0.052767985
54	0xbd4e23c2	-0.05032707
55	0x3dbab5a6	0.09116678
56	0x3d4cec38	0.050029963
57	0xbd65caa5	-0.05610146
58	0x3d87450d	0.06604967
59	0xbd4a5ac6	-0.049402975
60	0x3d8e78d6	0.069566414
61	0xbd2aaeb7	-0.041670527
62	0x3da0aa71	0.07845009
63	0xbd3d94ac	-0.046284363

bn1.running_mean f4 [64]
0	0xbe08ecd4	-0.13371593
1	0xbd407bde	-0.04699313
2	0xbe1fd178	-0.1560725
3	0x3d9ff724	0.0781081
4	0xbd4d96ee	-0.050192766
5	0xbd0c1c91	-0.03420693
6	0xbd99a5ca	-0.07502325
7	0xbb2cc34a	-0.0026361519
8	0x3e42d1bb	0.19025318
9	0xbe42eec5	-0.19036396
10	0x3cbf236b	0.023332318
11	0xbe87a96f	-0.26496455
12	0xbdad52f6	-0.08463089
13	0xbd57a620	-0.052648664
14	0xbe059ab3	-0.13047294
15	0x3db9e40c	0.090766996
16	0x3d9f5f51	0.07781852
17	0x3d060a5d	0.032724727
18	0xbe1b9cc3	-0.15196519
19	0x3e2dddcb	0.16979139
20	0x3d2bac92	0.041912623
21	0x3e313cb6	0.17308316
22	0x3da61314	0.081091076
23	0xbdf8fd1c	-0.12157652
24	0xbced762b	-0.028987011
25	0xbd275107	-0.040848758
26	0xbd80fdca	-0.062984064
27	0x3d6e8c78	0.05823943
28	0xbc70949d	-0.01468387
29	0xbc3f2899	-0.011667394
30	0xbddf44d8	-0.10901803
31	0x3e0599dc	0.13046974
32	0xbd4b026a	-0.04956285
33	0xbd9a8c5f	-0.07546305
34	0x3e36096c	0.17777032
35	0x3ebc1f6d	0.36742726
36	0xbe89914d	-0.26868668
37	0x3e412467	0.18861543
38	0x3e764a0c	0.24051684
39	0xbe95cd9e	-0.29258436
40	0x3e08da46	0.13364515
41	0x3dff9544	0.12479642
42	0xbd1934f6	-0.037404023
43	0x3d5a7085	0.053329963
44	0x3e04404c	0.12915152
45	0x3e374446	0.17897138
46	0x3e32b9fa	0.17453757
47	0xbcd5c1f0	-0.026093453
48	0x3d9b3aae	0.07579552
49	0xbbc4233f	-0.005985647
50	0x3e780769	0.24221577
51	0x3db3fcfa	0.08788486
52	0xbd489bfc	-0.048976883
53	0xbdf0255e	-0.11725877
54	0xbe163511	-0.1466868
55	0xbd87db41	-0.06633616
56	0xbde05873	-0.1095437
57	0xbdce5152	-0.10074104
58	0x3e46fa35	0.19431384
59	0xbc6a4270	-0.0142980665
60	0x3c2863ad	0.010277671
61	0xbe0d2503	-0.1378365
62	0x3e270cfb	0.16313545
63	0x3d56d1f7	0.05244633

bn1.running_var f4 [64]
0	0x3f80f10d	1.0073563
1	0x3f2fdc79	0.6869579
2	0x3f66b060	0.90112877
3	0x3e6befa6	0.23040637
4	0x3f45d100	0.77272034
5	0x3f721db2	0.9457656
6	0x3f33d426	0.7024559
7	0x3f15f90b	0.58583134
8	0x3fb0d270	1.381422
9	0x3f2f39f0	0.6844778
10	0x3f5a0fef	0.8518056
11	0x3f6dd81a	0.9290787
12	0x3f56598b	0.8373038
13	0x3f797fa5	0.97460395
14	0x3f522f10	0.8210306
15	0x3f9b6d48	1.2142725
16	0x3f7635b2	0.9617568
17	0x3f870599	1.0548583
18	0x3f79bf8f	0.9755792
19	0x3f542766	0.8287262
20	0x3f330806	0.6993412
21	0x3f8f8a7f	1.1214141
22	0x3f3c7624	0.7361777
23	0x3f8f5595	1.1197993
24	0x3f3eb2df	0.74491686
25	0x3f20ff10	0.62889194
26	0x3f8403a2	1.0313609
27	0x3ef4fbe6	0.47848433
28	0x3f65c02e	0.8974637
29	0x3f3781d2	0.71682465
30	0x3f7e9857	0.994512
31	0x3f2621f7	0.64895576
32	0x3efe2e87	0.49644873
33	0x3fa442f9	1.2832938
34	0x3f6cc199	0.92482907
35	0x3f1c1aa8	0.60978174
36	0x3ed3e6cc	0.41387022
37	0x3f43288e	0.76233757
38	0x3f2d869d	0.6778353
39	0x3f2f2c4f	0.68426985
40	0x3f118bbc	0.5685384
41	0x3f6d9fbb	0.92821854
42	0x3fa9a04e	1.3252046
43	0x3f784926	0.96986616
44	0x3ead17b1	0.33807138
45	0x3f74f310	0.95683384
46	0x3f52b422	0.8230611
47	0x3f9cdc74	1.2254777
48	0x3f590929	0.847796
49	0x3fa4b5a8	1.2867937
50	0x3f061f71	0.52391726
51	0x3eee1d31	0.46506646
52	0x3f26d2ee	0.65165603
53	0x3f503448	0.81329775
54	0x3f12e24f	0.5737657
55	0x3f873aec	1.0564857
56	0x3f1e0eec	0.6174152
57	0x3f889024	1.0668988
58	0x3f1a584f	0.60291
59	0x3fb0401b	1.3769563
60	0x3f39a29b	0.7251374
61	0x3f86cc2c	1.0531058
62	0x3fd40da8	1.6566668
63	0x3f7acaf6	0.97965944

fc2.weight f4 [1, 64]
0	0xbdaa0ea8	-0.08303577
1	0xbe116d21	-0.14201786
2	0xbc61e31b	-0.013787056
3	0x3cc76f48	0.024345055
4	0xbcd940fa	-0.026520241
5	0xbe35a8f5	-0.17740233
6	0xbe172ce5	-0.1476322
7	0xbe197f08	-0.14989865
8	0xbd8f7401	-0.07004548
9	0xbd9ee26f	-0.077580325
10	0xbe08f3e7	-0.13374291
11	0xbe17e40e	-0.1483309
12	0xbd99b117	-0.0750448
13	0xbe0df9a5	-0.13864763
14	0xbe239f40	-0.15978718
15	0xbe3577fd	-0.17721553
16	0x3babdfb7	0.0052451747
17	0x3d6a50ae	0.05720585
18	0xbe06813f	-0.13135241
19	0xbe2c09e8	-0.16800654
20	0xbe3e7b6a	-0.18601766
21	0xbe428e6f	-0.18999647
22	0xbdaf1369	-0.08548624
23	0x3d940a6a	0.07228549
24	0xbe1d8adb	-0.15385
25	0xbe343f2b	-0.17602222
26	0xbd870329	-0.065923996
27	0xbc2b9e43	-0.010474744
28	0xbdab6b68	-0.083700955
29	0x3d8f48e4	0.06996325
30	0xbdde88fd	-0.10865972
31	0xbb90e316	-0.004421602
32	0xbc0c557c	-0.008565303
33	0x3b757a58	0.0037456956
34	0xbb58bdb5	-0.0033072059
35	0x3a3a2f20	0.0007102359
36	0x3d44e16c	0.04806654
37	0xbdaf120a	-0.085483626
38	0xbe2c4ea2	-0.16826871
39	0x3d7879d0	0.060663044
40	0xbe4680cc	-0.1938507
41	0xbe1215bb	-0.14266102
42	0xbe040cc4	-0.12895495
43	0xbe2b2f36	-0.16717228
44	0xbc712822	-0.014719041
45	0x3d0b35f2	0.033986993
46	0xbdd6a70d	-0.10481081
47	0xbd6a0cbb	-0.057141047
48	0xbe260dc9	-0.16216196
49	0xbd90b01c	-0.0706484
50	0x3c17cd8c	0.009265315
51	0x3d1411b2	0.036149688
52	0xbdd03ee5	-0.10168246
53	0x3bc60465	0.0060430043
54	0x3d910743	0.07081463
55	0xbda0e5ec	-0.07856354
56	0xbd3ebeb1	-0.046568576
57	0x3c5e4649	0.013566562
58	0xbe30aa5d	-0.17252488
59	0x3d5089a6	0.05091252
60	0xbe212a8d	-0.15738888
61	0x3d49d5ca	0.04927615
62	0xbd6c3f83	-0.057677757
63	0x3adf2001	0.0017023088
