app/data/UserModel/krisoab/model.pth (torch, 56973 bytes, 10 tensors)

attention_pooling.attention.weight f4 [1, 192]
1.9699557e-05 -0.00012341143 -8.208209e-05 0.0025491237 0.0011633943 0.00020737664 0.004262713 5.3958684e-05
-0.00015888794 -0.0040430627 0.00014460442 -0.00044388618 -7.0544723e-07 -7.708226e-06 5.0474962e-05 -9.254629e-05
-0.00018304124 0.00037839948 5.4243437e-06 -0.00010278625 9.33788e-06 -0.0001008056 0.0006975967 0.00022846367
-0.00017212737 -2.5957444e-05 -2.6278723e-05 -0.0007033447 -6.471189e-05 0.0059618196 0.00026596425 9.951751e-05
-0.0045738877 1.1614353e-06 0.00040976546 0.00016872882 0.00066586636 -2.7016129e-05 0.00041445848 0.00027492654
0.000277254 -3.038482e-06 4.983302e-05 -0.002360763 -0.0003936761 -0.0001566321 6.9495756e-05 2.8546063e-05
-0.003707398 -0.00034826953 3.7442428e-06 -0.00045125524 4.2932916e-05 3.5345638e-06 0.0019469621 -2.638242e-05
-0.00010098146 -0.00016273648 -4.9559152e-05 0.00045228197 -8.905923e-05 0.0036927718 -0.00016686734 -1.5110008e-05
-0.00038507237 0.00016787324 5.4614934e-06 -0.004741447 -9.0081194e-05 2.1611888e-06 0.000101269 0.00014245916
-3.498908e-06 9.112201e-06 0.00042855984 -3.4841173e-07 -7.982984e-06 -0.0044802846 -0.00016084801 0.0026225066
-0.0020984765 -6.877055e-05 0.0001221368 1.8812781e-05 0.00014019066 0.00016718401 -5.820919e-05 5.315087e-05
0.00072141405 -0.00040196607 0.00022645296 -4.0062623e-05 0.00041943174 3.576076e-05 -4.1017207e-05 -7.0453393e-07
0.004621931 0.00081183144 3.5867255e-05 9.612289e-05 -0.0038055782 1.775534e-05 -8.874063e-06 0.002581774
3.4459903e-05 0.00039731825 0.0013019026 0.00010426702 -2.270708e-05 -0.005405618 0.0037888223 8.551765e-05
-3.1032694e-05 -5.1085615e-05 -0.00010015823 -5.9099744e-05 0.00017394239 -5.1233746e-07 4.1914067e-05 -6.7345154e-06
3.0318704e-05 9.783885e-05 0.003316788 0.00028491396 0.00019927189 -0.00121211 -0.00029796292 -0.00043664503
-0.00010315024 0.00041962226 -0.000117210766 -0.0022208602 1.1976931e-05 3.554912e-06 1.9734962e-06 -4.824123e-05
-0.00042810699 -0.0012039416 0.0001774866 1.9401712e-05 -0.00043165954 -0.00016292697 0.00016218744 -6.792796e-05
8.0242835e-06 0.0005955496 -0.0027208766 -0.00018695435 0.00033152202 -0.0003296353 -0.00038696194 -0.00043760316
-0.0016111551 0.003924744 0.0002977576 0.00042477192 0.005012711 0.00013065519 -3.2880376e-07 9.669653e-05
0.00013599663 -8.1523205e-05 0.0018033754 8.669482e-06 0.004018171 0.00010793787 6.446386e-05 -1.8995539e-06
6.3442494e-05 -7.2080275e-07 0.00018413656 0.0031085715 0.0001801457 -0.00018203522 1.3302228e-05 0.00036600427
-9.576428e-05 0.00017660165 0.00019644047 0.0055892984 0.00018478264 -5.6120232e-05 1.471549e-05 0.00015911412
5.2679326e-08 -0.0059058657 -0.0001864731 3.756245e-05 -0.00013767183 -0.00043693918 0.00042308136 8.263591e-05
00000000: 7a40 a537 0168 01b9 7d23 acb8 330f 273b
00000010: 097d 983a 3e73 5939 3aae 8b3b b251 6238
00000020: 289b 26b9 ab7b 84bb f4a0 1739 65b9 e8b9
00000030: f75d 3db5 9452 01b7 14b5 5338 6915 c2b8
00000040: c2ee 3fb9 eb63 c639 c202 b636 f38e d7b8
00000050: e4a9 1c37 9867 d3b8 ecde 363a c08f 6f39
00000060: 177d 34b9 30bf d9b7 2171 dcb7 aa60 38ba
00000070: eeb5 87b8 5e5b c33b 1e71 8b39 0eb4 d038
00000080: 8de0 95bb 9de2 9b35 cad5 d639 ccec 3039
00000090: 898d 2e3a b2a0 e2b7 ad4b d939 0424 9039
000000a0: 675c 9139 b9e8 4bb6 cc03 5138 08b7 1abb
000000b0: 5066 ceb9 9c3d 24b9 40be 9138 3476 ef37
000000c0: d1f7 72bb f297 b6b9 9a45 7b36 7496 ecb9
000000d0: de12 3438 5833 6d36 3531 ff3a d14f ddb7
000000e0: 02c6 d3b8 3ea4 2ab9 bcdd 4fb8 4220 ed39
000000f0: 4fc5 bab8 6e02 723b 1cf9 2eb9 fd80 7db7
00000100: 8ae3 c9b9 2107 3039 df41 b736 245e 9bbb
00000110: f9e9 bcb8 f108 1136 6160 d438 1761 1539
00000120: c8ce 6ab6 9be0 1837 54b0 e039 580d bbb4
00000130: a8ee 05b7 5acf 92bb 4fa9 28b9 5cde 2b3b
00000140: 9886 09bb e838 90b8 d911 0039 24d0 9d37
00000150: 2500 1339 1e4e 2f39 a425 74b8 50ee 5e38
00000160: 471d 3d3a f9be d2b9 0174 6d39 ea08 28b8
00000170: 2de7 db39 d3fd 1538 e409 2cb8 341f 3db5
00000180: 9173 973b 16d1 543a 2c70 1638 9595 c938
00000190: 0267 79bb 4df1 9437 cfe1 14b7 fb32 293b
000001a0: 0a89 1038 274f d039 9aa4 aa3a eea9 da38
000001b0: 157b beb7 9c21 b1bb e44d 783b f057 b338
000001c0: 1a29 02b8 c344 56b8 0a0c d2b8 dee1 77b8
000001d0: 4e64 3639 9087 09b5 e3cc 2f38 0cf9 e1b6
000001e0: ec54 fe37 d52e cd38 785e 593b 8160 9539
000001f0: a4f3 5039 aadf 9eba e837 9cb9 81ed e4b9
00000200: 5d52 d8b8 bf00 dc39 0dcf f5b8 da8b 11bb
00000210: 87f0 4837 ec90 6e36 6870 0436 a056 4ab8
00000220: 8c73 e0b9 94cd 9dba b21b 3a39 dcc0 a237
00000230: 5d50 e2b9 60d7 2ab9 dc10 2a39 8c74 8eb8
00000240: 09a0 0637 a81e 1c3a bc50 32bb 2d09 44b9
00000250: 22d0 ad39 e7d2 acb9 27e1 cab9 1a6e e5b9
00000260: 652d d3ba 249b 803b 591c 9c39 ecb3 de39
00000270: ab41 a43b 7c00 0939 7286 b0b4 8ec9 ca38
00000280: 519a 0e39 70f7 aab8 3d5f ec3a 2473 1137
00000290: ddaa 833b b45c e238 c530 8738 2df4 feb5
000002a0: 6e0c 8538 307d 41b5 c814 4139 2db9 4b3b
000002b0: 7ee5 3c39 b5e0 3eb9 a22c 5f37 43e4 bf39
000002c0: 0ed5 c8b8 252e 3939 96fb 4d39 6f26 b73b
000002d0: 36c2 4139 a462 6bb8 8ce2 7637 dfd7 2639
000002e0: 8841 6233 fe85 c1bb fe87 43b9 608c 1d38
000002f0: 005c 10b9 fc14 e5b9 05d1 dd39 d14c ad38

attention_pooling.layer_norm.weight f4 [192]
0.9813798 1.0224272 0.98858327 1.0088176 1.0132835 0.99937844 1.0033337 0.98071927
0.982905 0.9832373 0.9764551 1.0259584 0.98253024 1.0178703 1.0240248 1.018422
0.9867777 0.98216647 1.0144801 0.983283 0.98748016 0.98374975 0.9895298 1.0210198
0.9826538 0.98470044 0.9805704 1.0139441 1.0183269 0.9794128 1.0180116 0.9887451
1.0190834 0.98640347 0.9959858 1.0017077 1.0159856 1.005492 0.99835604 0.9827245
1.0229869 1.0133245 0.98536193 0.98426396 0.99620885 1.0082769 1.0100851 0.9852693
1.01181 1.0025578 1.0221342 1.0028548 0.9994907 0.98242766 1.0088439 1.0054967
0.97911364 1.0097287 0.9705057 1.0221155 1.00464 1.0146182 1.0183051 0.9884757
1.0156974 1.004654 1.0148723 0.9895925 1.0229332 1.0116777 0.98598355 0.9913858
1.0176125 1.0165308 0.9676369 1.0129739 1.0125186 1.0157827 1.0169643 1.017222
1.0065186 0.9872772 0.99109197 1.0194117 1.0067656 0.99780774 0.9970257 1.0035369
1.0041052 1.0056257 0.97833997 0.9877869 1.0050697 0.98484224 0.99535376 0.9867446
0.98336285 1.0206747 1.0239084 1.0177305 0.9939574 0.98421925 1.0220733 0.9920235
1.012292 0.97870004 0.9808873 1.0140406 1.0135429 1.0094528 1.0000682 0.97856164
1.0014031 0.99380475 0.9740232 1.0015472 1.0131648 0.97941977 1.0021901 1.0142074
1.003442 0.99151284 0.9828523 0.98874706 1.0192982 0.9911689 1.0099415 0.9844638
0.98726356 0.99030715 1.0036702 0.9735015 0.9996548 0.9800455 1.015384 0.9959409
0.9794442 1.0095053 0.98930603 0.98704845 1.020596 1.0056468 1.0121891 0.9875995
1.0159192 1.012538 0.9870884 1.0248597 0.99191797 0.99698645 0.9930048 0.99798465
0.99313116 0.9853446 0.9815713 0.9959966 0.980962 0.97550637 0.9885532 1.0030745
1.0131826 0.98565096 0.9846757 0.9829593 0.99204695 0.99701834 0.98464173 1.0262736
1.0129296 1.0160768 0.98913807 0.9833266 1.0077088 1.0120131 0.9834999 1.009244
0.9838775 0.9846034 0.97919613 1.0108696 0.9789333 0.984259 0.9819416 1.0051389
0.98282814 0.98521715 1.0112318 0.97266763 1.006969 1.0203407 1.0127176 1.0139419
00000000: b53b 7b3f e5de 823f cb13 7d3f ef20 813f
00000010: 46b3 813f 44d7 7f3f 3d6d 803f 6b10 7b3f
00000020: a99f 7b3f 71b5 7b3f f6f8 793f 9b52 833f
00000030: 1a87 7b3f 9349 823f 3f13 833f a75b 823f
00000040: 779d 7c3f 436f 7b3f 7cda 813f 6fb8 7b3f
00000050: 80cb 7c3f 06d7 7b3f d351 7d3f c7b0 823f
00000060: 338f 7b3f 5415 7c3f a906 7b3f ecc8 813f
00000070: 8958 823f ccba 7a3f 344e 823f 661e 7d3f
00000080: 5371 823f f084 7c3f edf8 7e3f f537 803f
00000090: d10b 823f f6b3 803f 4394 7f3f d593 7b3f
000000a0: 3cf1 823f 9eb4 813f ae40 7c3f b9f8 7b3f
000000b0: 8b07 7f3f 380f 813f 784a 813f 9c3a 7c3f
000000c0: fd82 813f d053 803f 4bd5 823f 8c5d 803f
000000d0: 9fde 7f3f 6180 7b3f cc21 813f 1eb4 803f
000000e0: 31a7 7a3f ca3e 813f 1073 783f aed4 823f
000000f0: 0b98 803f 02df 813f d257 823f be0c 7d3f
00000100: 5f02 823f 8198 803f 56e7 813f ef55 7d3f
00000110: 7aef 823f a87e 813f 6b69 7c3f 76cb 7d3f
00000120: 2041 823f ae1d 823f 0db7 773f 21a9 813f
00000130: 369a 813f 2b05 823f e32b 823f 5534 823f
00000140: 9ad5 803f 33be 7c3f 34b8 7d3f 157c 823f
00000150: b2dd 803f 5470 7f3f 143d 7f3f e673 803f
00000160: 8586 803f 58b8 803f 7d74 7a3f 9adf 7c3f
00000170: 20a6 803f 9f1e 7c3f 81cf 7e3f 4b9b 7c3f
00000180: abbd 7b3f 78a5 823f 6e0f 833f fe44 823f
00000190: fe73 7e3f cbf5 7b3f 4cd3 823f 41f5 7d3f
000001a0: c992 813f 168c 7a3f 6e1b 7b3f 15cc 813f
000001b0: c6bb 813f c035 813f 3c02 803f 0483 7a3f
000001c0: fa2d 803f fd69 7e3f 9659 793f b332 803f
000001d0: 62af 813f 41bb 7a3f c447 803f 8cd1 813f
000001e0: ca70 803f c9d3 7d3f 359c 7b3f 871e 7d3f
000001f0: 5d78 823f 3fbd 7d3f c345 813f d205 7c3f
00000200: 4ebd 7c3f c584 7d3f 4478 803f 6537 793f
00000210: 61e9 7f3f 43e4 7a3f 1af8 813f fcf5 7e3f
00000220: dbbc 7a3f 7837 813f 2943 7d3f 35af 7c3f
00000230: e4a2 823f 09b9 803f 6a8f 813f 52d3 7c3f
00000240: a409 823f d89a 813f d3b1 7c3f 9a2e 833f
00000250: 56ee 7d3f 813a 7f3f 9035 7e3f ec7b 7f3f
00000260: d83d 7e3f 8b3f 7c3f 4248 7b3f a2f9 7e3f
00000270: 5320 7b3f c9ba 793f d311 7d3f bf64 803f
00000280: f8af 813f 9f53 7c3f b513 7c3f 38a3 7b3f
00000290: caf6 7d3f 983c 7f3f 7b11 7c3f ef5c 833f
000002a0: ada7 813f ce0e 823f 2738 7d3f 4bbb 7b3f
000002b0: 9afc 803f a589 813f a6c6 7b3f e82e 813f
000002c0: 65df 7b3f f80e 7c3f 99ac 7a3f 2d64 813f
000002d0: 5f9b 7a3f 66f8 7b3f 8660 7b3f 64a8 803f
000002e0: a09a 7b3f 3137 7c3f 0b70 813f bf00 793f
000002f0: 5ce4 803f 869a 823f bba0 813f d9c8 813f

attention_pooling.layer_norm.bias f4 [192]
-5.3511354e-07 -7.046137e-07 -1.0993086e-06 -1.6558585e-06 1.5021851e-06 1.4704591e-06 -1.4284706e-06 1.4538898e-08
-9.068834e-07 -3.2735752e-06 2.1501357e-06 -1.3234795e-06 -3.0151111e-06 -1.1074762e-06 1.4785495e-06 -4.147829e-06
-8.220924e-07 -1.3761893e-06 2.8735653e-06 -1.1712102e-06 -4.6992295e-06 -4.0131454e-11 2.318157e-06 2.4115067e-07
2.845315e-07 -2.6162715e-07 -1.616688e-06 6.459882e-08 2.8124498e-06 3.4836802e-08 -1.2031563e-06 -6.3280794e-07
-1.675164e-06 -3.5158832e-06 5.507654e-06 -3.606354e-07 2.767522e-07 2.5966576e-06 8.138923e-08 2.910845e-06
2.1293098e-07 5.5972754e-07 -3.475503e-06 -6.4861354e-07 2.2168076e-06 2.5140178e-06 -3.3574904e-07 5.940521e-08
2.627692e-06 -1.2368901e-06 -1.3789223e-06 2.4052085e-06 2.372236e-06 -2.1066285e-06 4.858742e-06 -3.6507406e-06
1.5747089e-06 -2.1227297e-06 1.8403734e-06 3.0836983e-07 -1.0608277e-06 -4.647938e-07 -8.1301687e-07 7.4711517e-07
-3.006311e-07 2.660087e-07 -2.6061389e-06 -7.8735314e-07 -3.600045e-07 -4.590789e-06 -2.2543254e-06 1.2944729e-06
2.7858152e-06 -5.566975e-07 -3.0717997e-06 -1.3912114e-06 -1.030532e-06 -2.6475143e-06 5.5551743e-07 1.1023224e-06
-6.147587e-07 -1.1029647e-07 -2.4008098e-06 -2.400971e-06 -2.310724e-06 2.7179663e-06 4.221223e-06 1.8237561e-06
-3.0780708e-07 6.1941205e-07 -2.1969158e-06 3.8418824e-07 9.923805e-07 -7.56481e-07 -1.0029385e-06 -5.138293e-07
5.0054286e-06 5.503786e-06 -4.298603e-08 -6.136263e-07 -4.10891e-06 -3.0658714e-07 -6.0025053e-07 -5.6046065e-07
-6.1265104e-07 -1.1507715e-06 -2.1425121e-06 9.086008e-07 -1.505591e-06 -2.171005e-06 -6.343318e-07 -1.3036928e-06
-1.2020688e-06 -2.1939068e-06 -1.7006719e-06 8.02973e-07 3.4593363e-06 1.5579764e-06 3.098027e-06 1.6272843e-06
-1.4171499e-06 2.3378727e-06 2.8905966e-08 1.1558204e-06 3.045543e-07 4.075323e-06 -4.295626e-08 1.5484904e-06
-1.4260377e-06 2.7807425e-07 -1.1556971e-06 3.8325092e-07 1.253814e-06 2.4346675e-06 2.7794676e-06 -8.38693e-07
1.1395159e-06 1.6246478e-06 1.5217365e-06 -2.0943617e-08 4.1798844e-06 1.24575e-06 -2.1399328e-06 -2.578649e-06
6.61827e-07 1.8335343e-06 1.2781695e-06 -1.7792722e-06 -7.268476e-07 -5.2581544e-07 -3.305168e-07 1.3423431e-07
-4.7126406e-07 -5.2694418e-08 -1.3894748e-06 2.4310764e-06 8.3959173e-07 2.5631823e-07 -1.8433101e-06 -6.815509e-07
1.4425902e-06 8.49636e-07 4.2146976e-06 9.3524625e-07 4.473087e-07 -1.4494152e-06 -1.7059165e-08 8.561009e-07
-5.796382e-07 3.0114481e-06 2.4480228e-06 2.156728e-07 -2.1843773e-06 -1.5370998e-06 -1.3241195e-06 -7.190215e-08
3.8786388e-07 -2.5831139e-06 1.2510658e-06 -2.1743085e-07 -1.4118874e-06 -3.0024207e-06 -3.209998e-06 1.9992028e-06
-2.0549974e-06 9.9964495e-08 1.7022987e-06 -4.7137183e-07 -1.0996466e-06 2.8344223e-06 -3.665558e-07 1.8164897e-06
00000000: b9a4 0fb5 af24 3db5 f58b 93b5 dd3e deb5
00000010: b09e c935 975c c535 e0b9 bfb5 c0c6 7932
00000020: 8d70 73b5 98af 5bb6 0d4b 1036 69a2 b1b5
00000030: 3757 4ab6 98a4 94b5 9372 c635 942d 8bb6
00000040: c2ad 5cb5 81b5 b8b5 7ad7 4036 7a32 9db5
00000050: 13ae 9db6 0080 30ae a291 1b36 7f77 8134
00000060: b6c1 9834 c375 8cb4 fafc d8b5 94b9 8a33
00000070: 85bd 3c36 789f 1533 237c a1b5 3bde 29b5
00000080: 32d6 e0b5 6af2 6bb6 63ce b836 5a9d c1b4
00000090: 8894 9434 3d42 2e36 34c8 ae33 f057 4336
000000a0: 06a2 6434 2f40 1635 b03c 69b6 621c 2eb5
000000b0: 77c4 1436 7fb6 2836 ff40 b4b4 b824 7f33
000000c0: 6857 3036 3803 a6b5 6913 b9b5 2b69 2136
000000d0: b432 1f36 9a5f 0db6 4708 a336 3fff 74b6
000000e0: 965a d335 3874 0eb6 c002 f735 078e a534
000000f0: c361 8eb5 c688 f9b4 183e 5ab5 5d8d 4835
00000100: 6c66 a1b4 f5cf 8e34 20e5 2eb6 7f5a 53b5
00000110: a446 c1b4 940a 9ab6 0449 17b6 c0bd ad35
00000120: f1f3 3a36 f66f 15b5 1e25 4eb6 a9b9 bab5
00000130: cf50 8ab5 f3ab 31b6 de1e 1535 82f3 9335
00000140: e505 25b5 20dc ecb3 991d 21b6 5e20 21b6
00000150: f011 1bb6 4e66 3636 08a4 8d36 c8c7 f435
00000160: af40 a5b4 ac45 2635 ba6e 13b6 6e42 ce34
00000170: ef31 8535 fa10 4bb5 b49c 86b5 15ee 09b5
00000180: 4ef4 a736 29ad b836 a49f 38b3 14b8 24b5
00000190: 45df 89b6 0499 a4b4 e720 21b5 9072 16b5
000001a0: 0f75 24b5 3574 9ab5 14c8 0fb6 92e6 7335
000001b0: b613 cab5 95b1 11b6 f346 2ab5 8bfa aeb5
000001c0: c556 a1b5 083b 13b6 a442 e4b5 e28b 5735
000001d0: f226 6836 a91b d135 b3e7 4f36 1069 da35
000001e0: e634 beb5 59e4 1c36 e44c f832 b021 9b35
000001f0: a081 a334 c2be 8836 e87e 38b3 bad5 cf35
00000200: 4866 bfb5 3c4a 9534 731d 9bb5 9bc1 cd34
00000210: b948 a835 4563 2336 e486 3a36 8b22 61b5
00000220: 78f1 9835 790e da35 783e cc35 80e7 b3b2
00000230: ef40 8c36 a533 a735 c49b 0fb6 da0c 2db6
00000240: 68a8 3135 c217 f635 928d ab35 54cf eeb5
00000250: 961c 43b5 c325 0db5 e271 b1b4 0c22 1034
00000260: 0a02 fdb4 2052 62b3 fe7d bab5 9325 2336
00000270: 4e60 6135 1c9c 8934 a767 f7b5 d2f3 36b5
00000280: 069f c135 8b12 6435 fa6b 8d36 a20d 7b35
00000290: a425 f034 8789 c2b5 8089 92b2 cece 6535
000002a0: 6f98 1bb5 4918 4a36 b648 2436 b093 6734
000002b0: 5197 12b6 594e ceb5 66b8 b1b5 a068 9ab3
000002c0: 9b3b d034 8f59 2db6 4bea a735 f076 69b4
000002d0: 1580 bdb5 327d 49b6 596b 57b6 0b2a 0636
000002e0: 96e8 09b6 10ac d633 8a7a e435 da10 fdb4
000002f0: 9297 93b5 0137 3e36 0ccb c4b4 1cce f335

fc1.weight f4 [64, 192]
-0.022846261 -0.013554631 -0.044937696 0.018593991 0.09143769 0.011490047 0.026037179 0.06963883
-0.07802386 -0.008733811 0.032285247 0.013266817 0.07993764 0.022203442 0.015180244 0.05634728
0.019002836 -0.034908306 -0.04088409 -0.028259115 -0.01253086 -0.066665106 0.037058264 -0.041268405
-0.03831896 0.048605595 -0.004476667 0.005434701 -0.05936082 -0.07014332 0.030778877 0.017412892
0.025901297 -0.03448492 -0.04242911 0.010507289 -0.06762521 0.00801811 -0.045381017 -0.03414443
0.04727907 0.050934948 0.011425734 -0.048969712 -0.024097862 -0.079873756 0.042909272 0.05764799
-0.02008718 0.012005423 0.06595708 0.031595685 0.0055531547 -0.009687682 -0.05716713 -0.020760335
0.0710692 0.0706531 0.05020002 0.055579673 0.012268446 0.022536578 0.030462049 0.017008103
0.037733965 0.034381766 0.01798055 -0.005321701 -0.074041456 0.023075696 -0.0035011475 -0.04076956
-0.011888098 0.00069946755 0.013030217 -0.02693525 -0.04253308 0.00540085 -0.060336165 -0.027510466
-0.051207226 -0.023300277 -0.043601383 -0.045438763 0.035371944 0.049206335 -0.03702989 0.011571526
-0.039277095 -0.07192216 -0.02580506 0.03857208 -0.03797792 -0.022067364 -0.06630556 -0.019414773
0.038721114 0.058143187 0.04823105 -0.021418307 0.016993059 0.064772844 -0.045261636 0.058001857
-0.058769103 -0.022719435 -0.050830327 0.07211162 -0.05343753 0.07934611 -0.035339937 0.043840982
0.012778317 0.00987325 -0.028147057 0.025682889 0.044413447 0.023865756 0.021673791 0.050276924
0.034578234 -0.06690903 -0.079575375 0.04752529 -0.06865065 0.058925107 0.03420859 0.039747134
-0.035216473 -0.027047954 0.010447955 -0.01986807 -0.08089137 0.020247327 -0.016949976 0.017588183
-0.0034624762 0.036993653 -0.03231968 -5.428889e-05 -0.02027816 0.03568872 0.0032841794 0.04245305
0.0027322127 -0.0738356 0.058413044 -0.061858688 -0.0006574076 -0.049587667 0.068448454 -0.049882673
0.07534783 0.048216164 -0.031265326 0.06479611 -0.032744404 0.058147274 -0.048352107 0.082205035
0.061097573 -0.0017188169 -0.0037281374 0.016321398 -0.05344392 -0.06126706 -0.0063607492 0.037612803
-0.0050792103 -0.06284306 0.029163932 -0.030080294 -0.085263334 0.0055968543 -0.050946712 0.070000544
0.04479188 -0.037750125 -0.021364838 0.056841582 -0.012125451 0.016944716 -0.0110552525 -0.038631406
0.032241955 0.0011576809 0.025512544 -0.075674094 -0.011153608 0.016549265 0.009568855 -0.080672786
0.03576913 -0.012729413 -0.004735028 -0.012089858 0.062709756 -0.008927314 -0.042753357 -0.00045812753
-0.050875593 -0.051817372 -0.03479272 0.030000007 -0.0018638922 -0.08932489 0.06765441 -0.04748913
0.031217333 0.014124244 -0.024115711 0.057417717 -0.02618061 -0.056830402 -0.02200631 -0.056993417
0.040502198 0.08016685 -0.03267401 0.021177733 0.018925263 0.05656154 -0.026792224 -0.0041771824
0.05700951 -0.05645906 0.067489415 0.0011674878 -0.0035905188 0.018168868 0.065209895 0.016206736
-0.06304274 0.048023272 -0.03858996 -0.013453493 0.024029305 0.09222319 -0.055981256 0.060130995
0.0656025 -0.06006178 -0.055142213 0.035579864 0.07615043 0.033751942 -0.01153911 0.03933557
-0.033529993 0.016457226 0.07241815 0.03781829 -0.062760815 -0.008273238 -0.066913396 -0.005415054
00000000: 1528 bbbc 3e14 5ebc 9710 38bd 6d52 983c
00000010: af43 bb3d c040 3c3c ec4b d53c ce9e 8e3d
00000020: f9ca 9fbd 4218 0fbc 893d 043d 105d 593c
00000030: 58b6 a33d fee3 b53c 8fb6 783c 68cc 663d
00000040: d6ab 9b3c 03fc 0ebd 1376 27bd a97f e7bc
00000050: 3c4e 4dbc b787 88bd 68ca 173d 0f09 29bd
00000060: 58f4 1cbd a916 473d 01b1 92bb 9415 b23b
00000070: 5524 73bd 4da7 8fbd fc23 fc3c 7ba5 8e3c
00000080: f52e d43c 0f40 0dbd 25ca 2dbd c426 2c3c
00000090: 167f 8abd 645e 033c 72e1 39bd 08db 0bbd
000000a0: b3a7 413d 2aa1 503d 0033 3b3c 7794 48bd
000000b0: e168 c5bc da94 a3bd a2c1 2f3d 4c20 6c3d
000000c0: df8d a4bc 65b2 443c 8114 873d 7a6a 013d
000000d0: 3df7 b53b 15b9 1ebc 1528 6abd 9411 aabc
000000e0: bb8c 913d 93b2 903d 899e 4d3d 83a7 633d
000000f0: 9801 493c a19e b83c 8c8b f93c 9454 8b3c
00000100: ee8e 1a3d e5d3 0c3d f24b 933c aa61 aebb
00000110: 0ca3 97bd 3e09 bd3c 8273 65bb fbfd 26bd
00000120: 4cc6 42bc 795c 373a b17c 553c 50a7 dcbc
00000130: 2b37 2ebd 9df9 b03b 0e23 77bd a15d e1bc
00000140: abbe 51bd 39e0 bebc 5d97 32bd ff1d 3abd
00000150: 2ce2 103d 958c 493d a7ac 17bd 7f96 3d3c
00000160: 05e1 20bd ed4b 93bd 2265 d3bc c2fd 1d3d
00000170: bc8e 1bbd 9ec6 b4bc 36cb 87bd bb0b 9fbc
00000180: 089a 1e3d 8d27 6e3d ec8d 453d 7275 afbc
00000190: 0735 8b3c a0a7 843d 4464 39bd 5b93 6d3d
000001a0: dfb7 70bd 1c1e babc 7633 50bd 42af 933d
000001b0: 50e1 5abd 3780 a23d 9cc0 10bd 9a92 333d
000001c0: 255c 513c 69c3 213c a894 e6bc ec64 d23c
000001d0: e0ea 353d 1e82 c33c 3c8d b13c 2def 4d3d
000001e0: e8a1 0d3d 9a07 89bd 6af8 a2bd e1a9 423d
000001f0: b698 8cbd 745b 713d 4e1e 0c3d e4cd 223d
00000200: 263f 10bd ac93 ddbc e62d 2b3c 5dc2 a2bc
00000210: 60aa a5bd b9dd a53c adda 8abc 1815 903c
00000220: b6ea 62bb a886 173d a461 04bd 40b4 63b8
00000230: 621e a6bc 562e 123d 633b 573b 40e3 2d3d
00000240: ec0e 333b 1e37 97bd 8442 6f3d 895f 7dbd
00000250: e155 2cba 701c 4bbd b42e 8c3d c651 4cbd
00000260: f74f 9a3d 507e 453d 1210 00bd d3b3 843d
00000270: ff1e 06bd d62b 6e3d dc0c 46bd 1d5b a83d
00000280: 7341 7a3d ed49 e1ba c453 74bb 74b4 853c
00000290: 03e8 5abd 2bf3 7abd d56d d0bb e20f 1a3d
000002a0: 816f a6bb ddb3 80bd 33e9 ee3c f36a f6bc
000002b0: 8b9e aebd d165 b73b 80ad 50bd 725c 8f3d
000002c0: b177 373d e09f 1abd 5005 afbc b8d2 683d
000002d0: d4a9 46bc a5cf 8a3c 1721 35bc f73b 1ebd
000002e0: 2410 043d 53bd 973a afff d03c 05fb 9abd
000002f0: 9fbd 36bc 5392 873c b0c6 1c3c c637 a5bd
00000300: a782 123d 078f 50bc 4b28 9bbb 8a14 46bc
00000310: f96d 803d de43 12bc 251e 2fbd d630 f0b9
00000320: ed62 50bd 743e 54bd d082 0ebd 93c2 f53c
00000330: d84d f4ba f8ef b6bd 658e 8a3d f683 42bd
00000340: 7ebb ff3c 6069 673c 508e c5bc d72e 6b3d
00000350: b878 d6bc ffc6 68bd 9446 b4bc ee71 69bd
00000360: a2e5 253d 842e a43d 2fd5 05bd ed7c ad3c
00000370: 2709 9b3c 13ad 673d 5e7b dbbc bfe0 88bb
00000380: ce82 693d 9e41 67bd e437 8a3d 6406 993a
00000390: e94e 6bbb e1d6 943c c48c 853d fdc3 843c
000003a0: 8d1c 81bd 0db4 443d 8210 1ebd 0a6c 5cbc
000003b0: 1bd9 c43c 83df bc3d 9a4c 65bd eb4b 763d
000003c0: 9b5a 863d 5703 76bd cddc 61bd 31bc 113d
000003d0: c2f4 9b3d 7a3f 0a3d 890e 3dbc 561e 213d
000003e0: bf56 09bd 4ed1 863c f84f 943d 5ae7 1a3d
000003f0: be88 80bd 7a8c 07bc e409 89bd c470 b1bb

fc1.bias f4 [64]
6.63234e-05 -0.0053333794 0.00017431781 -0.0022267122 -0.00017042205 -0.00442663 -1.6590426e-05 0.00025762053
1.7865366e-05 -0.0001851063 8.053118e-06 0.0007014163 -0.00015939193 -0.0043773493 9.864529e-05 -6.0244623e-05
0.0019857713 9.139526e-05 1.080477e-06 0.003671695 0.0007350667 -8.765352e-05 0.0032801423 -0.00014277664
5.919279e-06 -0.00010530597 -0.003737124 0.00010055661 -9.091407e-05 -0.0021505891 -0.0004529653 -4.9338018e-05
-6.441492e-05 -0.000121308534 0.0014168262 -0.00026902914 0.005683206 0.00012647484 0.00035014242 -3.7161404e-05
3.981918e-05 -0.00039404738 -2.8391318e-05 -0.0003454306 -0.005617978 -4.8261747e-05 -5.544432e-06 -1.3369202e-05
6.8682357e-06 5.794661e-06 -0.00042788498 -6.351438e-06 0.0053083757 0.00018276913 0.00012090012 7.844065e-06
-3.346813e-05 -9.473916e-05 6.8197645e-05 3.165309e-05 2.6820433e-05 -2.028315e-06 -0.00018569596 1.1056925e-05
00000000: 1b17 8b38 a1c3 aebb 15c9 3639 08ee 11bb
00000010: 52b3 32b9 440d 91bb ab2b 8bb7 3e11 8739
00000020: 95dd 9537 1819 42b9 e11b 0737 40df 373a
00000030: 7222 27b9 de6f 8fbb c9df ce38 2caf 7cb8
00000040: b723 023b 75ab bf38 e804 9135 d2a0 703b
00000050: 7eb1 403a a0d2 b7b8 a8f7 563b 50b6 15b9
00000060: 389e c636 b6d7 dcb8 89ea 74bb ebe1 d238
00000070: 1fa9 beb8 e6f0 0cbb f97b edb9 4bf0 4eb8
00000080: 7f16 87b8 0667 feb8 ccb4 b93a 7b0c 8db9
00000090: 303a ba3b 559e 0439 5293 b739 c1dd 1bb8
000000a0: 8503 2738 2598 ceb9 e429 eeb7 e91a b5b9
000000b0: 0417 b8bb a86c 4ab8 4f0a bab6 494c 60b7
000000c0: b275 e636 c26f c236 c055 e0b9 701e d5b6
000000d0: e2f1 ad3b b7a5 3f39 c28b fd38 019a 0337
000000e0: 2260 0cb8 b3ae c6b8 5505 8f38 3fc3 0438
000000f0: 71fc e037 301e 08b6 61b7 42b9 2281 3937

bn1.weight f4 [64]
1.0613757 1.0683389 1.0546926 1.0305843 1.0650811 1.0375127 1.0562842 1.0777676
1.0534155 1.0509356 1.0605038 1.078156 1.0311067 1.092207 1.0569844 1.0569091
1.0987477 1.0658599 1.0234355 1.0526401 1.0534942 1.0702876 1.0636798 1.0448073
1.0570178 1.0744778 1.0072184 1.0859648 1.0597472 1.0589907 1.0656044 1.0664803
1.0757482 1.0404623 1.0691082 1.0716062 1.0701252 1.047049 1.0596098 1.0459126
1.0107759 1.0211818 1.0727059 1.0579077 1.0583795 1.0625111 0.9951772 1.0667663
1.0813189 1.0511098 1.0273901 1.0715027 1.065814 1.0567414 1.0358161 1.0580361
1.0609555 1.0765836 1.075677 1.0718846 1.0659624 1.0650607 1.0324129 1.0578339
00000000: 29db 873f 54bf 883f 2b00 873f 30ea 833f
00000010: 9454 883f 37cd 843f 5234 873f 4af4 893f
00000020: 52d6 863f 0f85 863f 97be 873f 0401 8a3f
00000030: 4efb 833f 70cd 8b3f 444b 873f cc48 873f
00000040: c4a3 8c3f 196e 883f efff 823f e9bc 863f
00000050: e6d8 863f 2fff 883f a926 883f 3fbc 853f
00000060: 5c4c 873f 7d88 893f 88ec 803f e500 8b3f
00000070: cca5 873f 028d 873f ba65 883f 6d82 883f
00000080: 1eb2 893f de2d 853f 8ad8 883f 642a 893f
00000090: ddf9 883f b405 863f 4ba1 873f 77e0 853f
000000a0: 1b61 813f 16b6 823f 6d4e 893f 8569 873f
000000b0: fb78 873f 5d00 883f efc3 7e3f cc8b 883f
000000c0: a868 8a3f c48a 863f 8581 833f 0027 893f
000000d0: 986c 883f 4d43 873f 9f95 843f ba6d 873f
000000e0: 64cd 873f 7ecd 893f c9af 893f 8433 893f
000000f0: 7571 883f e953 883f 1b26 843f 1a67 873f

bn1.bias f4 [64]
0.053382665 0.06588795 0.050356504 0.015401135 0.066899195 0.03224378 0.054846596 0.07731943
0.05441492 0.04855068 0.048108846 0.072690524 0.044261355 0.09427988 0.056318413 0.06133806
0.09457644 0.06521061 0.026757821 0.053136073 0.0593323 0.06895723 0.06237814 0.04853362
0.057192165 0.06723362 0.009424536 0.084330484 0.06004634 0.056601163 0.06017986 0.060982205
0.0696261 0.027079847 0.07860051 0.060995106 0.07201527 0.049505018 0.057980653 0.05328247
0.006979853 0.019020375 0.0767856 0.052510552 0.055393245 0.056326643 -0.0090982765 0.0672754
0.07410074 0.060171284 0.031420413 0.068177946 0.070410214 0.05304563 0.019768046 0.053853154
0.05808561 0.06950702 0.08115376 0.07602593 0.068435065 0.06731032 0.035489924 0.061011333
00000000: c8a7 5a3d 43f0 863d 9f42 4e3d 0b55 7c3c
00000010: 7202 893d 0e12 043d d3a6 603d a659 9e3d
00000020: 2ee2 5e3d 14dd 463d c80d 453d c5de 943d
00000030: 654b 353d cf15 c13d 23ae 663d 9e3d 7b3d
00000040: 4bb1 c13d 248d 853d 3833 db3c 36a5 593d
00000050: 6d06 733d 7339 8d3d 3880 7f3d 30cb 463d
00000060: 5542 6a3d c8b1 893d 5e69 1a3c 76b5 ac3d
00000070: 27f3 753d 9fd6 673d 287f 763d 7ac8 793d
00000080: 2198 8e3d 8ed6 dd3c 4ef9 a03d 01d6 793d
00000090: be7c 933d c6c5 4a3d 1f7d 6d3d b83e 5a3d
000000a0: 40b7 e43b 9ed0 9b3c c541 9d3d 4e15 573d
000000b0: 07e4 623d c4b6 663d f010 15bc afc7 893d
000000c0: 21c2 973d 2a76 763d b1b2 003d e1a0 8b3d
000000d0: 3b33 903d 6046 593d 99f0 a13c 2095 5c3d
000000e0: 2deb 6d3d b259 8e3d f133 a63d 7cb3 9b3d
000000f0: af27 8c3d fed9 893d e25d 113d 05e7 793d

bn1.running_mean f4 [64]
-0.014924771 0.12170394 -0.06915205 0.04984042 0.11185028 0.081849836 0.12482067 0.11872095
-0.05614021 -0.11530466 -0.18140408 0.06350763 -0.036621653 -0.034580253 0.20636643 -0.09826721
0.21003157 -0.21657519 0.13378437 -0.0005551102 -0.10784438 0.17218767 0.03996414 -0.051935107
-0.045362126 -0.13425998 -0.2020036 0.11034315 -0.090973094 0.18027051 -0.22700955 0.1733191
0.06611852 -0.2120077 0.1296711 -0.06079671 0.0774038 0.07674603 0.14482479 0.1479814
-0.098584294 -0.19938582 -0.30369848 -0.15285629 0.03778027 -0.073013246 -0.12147497 0.19363363
0.08978943 -0.07600126 -0.17312627 0.11230488 0.13405322 -0.119319394 -0.11321817 0.041017585
-0.07783201 -0.08287379 0.092250526 0.17043172 -0.09373895 -0.05750936 -0.07736908 0.13376328
00000000: 0787 74bc ea3f f93d 979f 8dbd 7825 4c3d
00000010: c211 e53d e3a0 a73d fba1 ff3d f823 f33d
00000020: 47f3 65bd d924 ecbd fec1 39be 4a10 823d
00000030: 9600 16bd 06a4 0dbd b951 533e 5240 c9bd
00000040: 8412 573e e3c5 5dbe c5fe 083e d184 11ba
00000050: 84dd dcbd f751 303e 70b1 233d e8b9 54bd
00000060: a3cd 39bd 737b 09be 08da 4ebe 97fb e13d
00000070: 1a50 babd d598 383e 3175 68be 907a 313e
00000080: 2669 873d 8c18 59be 80c8 043e f905 79bd
00000090: e285 9e3d 062d 9d3d f34c 143e 7088 173e
000000a0: 90e6 c9bd cc2b 4cbe 5e7e 9bbe 5c86 1cbe
000000b0: 7cbf 1a3d f887 95bd dec7 f8bd e547 463e
000000c0: 85e3 b73d 8ca6 9bbd 0348 31be 1a00 e63d
000000d0: 3f45 093e ba5d f4bd eede e7bd 0e02 283d
000000e0: 6466 9fbd bcb9 a9bd d8ed bc3d a785 2e3e
000000f0: 35fa bfbd ef8e 6bbd ae73 9ebd 3ef9 083e

bn1.running_var f4 [64]
1.2176101 1.1298678 1.1480906 1.3639436 2.1676738 1.018204 0.98445123 1.3573731
1.362582 1.3785555 1.1999785 1.356677 1.7860011 1.715436 2.0033507 1.3788537
1.475973 1.5153551 1.7428662 0.9336085 1.3616477 1.3496791 1.019989 1.5412014
0.5774204 0.8422117 1.8870188 1.1674607 0.7893528 1.5678234 1.2451334 1.6709017
1.7315266 1.3374244 1.0950004 0.91824025 1.9124206 0.63104683 1.3848441 1.6856252
1.5293458 1.9637555 2.484001 1.3490635 0.8981432 1.0101727 1.3285681 0.9179672
1.331613 2.2858279 1.665025 1.4737519 1.5608758 1.3177986 0.861178 1.4988406
1.3331096 1.2267585 1.598742 1.2131361 1.4208767 0.9846835 1.3846933 1.5110013
00000000: a6da 9b3f 829f 903f a2f4 923f b495 ae3f
00000010: 2bbb 0a40 8254 823f ff04 7c3f 67be ad3f
00000020: 1669 ae3f 8274 b03f e598 993f 98a7 ad3f
00000030: af9b e43f 6893 db3f e636 0040 477e b03f
00000040: afec bc3f 28f7 c13f 3d16 df3f f700 6f3f
00000050: 794a ae3f 49c2 ac3f 008f 823f 1646 c53f
00000060: d3d1 133f 309b 573f d589 f13f 5a6f 953f
00000070: 0613 4a3f 70ae c83f 8860 9f3f 1be0 d53f
00000080: aaa2 dd3f b930 ab3f f928 8c3f cb11 6b3f
00000090: 33ca f43f 498c 213f 9242 b13f 91c2 d73f
000000a0: 9ac1 c33f 575c fb3f dff9 1e40 1dae ac3f
000000b0: b6ec 653f 574d 813f 850e aa3f e6ff 6a3f
000000c0: 4b72 aa3f 014b 1240 8a1f d53f e7a3 bc3f
000000d0: c7ca c73f a0ad a83f 2976 5c3f 02da bf3f
000000e0: 56a3 aa3f 6c06 9d3f 94a3 cc3f 0b48 9b3f
000000f0: 4adf b53f 3814 7c3f a13d b13f 7e68 c13f

fc2.weight f4 [1, 64]
-0.11880038 0.18266094 -0.13558143 -0.061181653 0.1546381 0.05711458 0.16770917 0.07789781
-0.17472774 -0.16016378 -0.15495558 0.14082827 -0.10913966 -0.05320094 0.16524738 -0.15791306
0.07357511 -0.15844433 0.07715045 -0.1244301 -0.14246468 0.10690714 -0.08475235 -0.09511326
-0.13170105 -0.092056416 -0.09541544 0.06859753 -0.08975211 0.14985278 -0.14986964 0.17158586
0.15718403 -0.12290723 0.09529489 -0.100267895 0.13715519 -0.15338732 0.13842605 0.06883424
-0.12010335 -0.07676768 -0.08955335 -0.112911284 0.11927814 -0.1461404 -0.067276835 0.13579412
0.0944664 -0.09782185 -0.053530637 0.1208038 0.1295419 -0.1549967 -0.06420045 0.10006252
-0.08861825 -0.08997613 0.13187005 0.09508526 -0.10418205 -0.099529155 -0.15384644 0.109052196
00000000: 9d4d f3bd 780b 3b3e dcd5 0abe 9d99 7abd
00000010: 7359 1e3e faf0 693d f4bb 2b3e e388 9f3d
00000020: d4eb 32be f901 24be adac 1ebe 4935 103e
00000030: 9d84 dfbd 3be9 59bd 9c36 293e f6b3 21be
00000040: 8cae 963d 3b3f 22be 0e01 9e3d 35d5 febd
00000050: 43e2 11be 21f2 da3d a492 adbd beca c2bd
00000060: a4dc 06be 1388 bcbd 2c69 c3bd dd7c 8c3d
00000070: f4cf b7bd 0273 193e 6d77 19be 34b4 2f3e
00000080: daf4 203e c9b6 fbbd f829 c33d 4159 cdbd
00000090: 6972 0c3e 9111 1dbe 8fbf 0d3e f7f8 8c3d
000000a0: bff8 f5bd 6038 9dbd bf67 b7bd 083e e7bd
000000b0: 1948 f43d d4a5 15be 70c8 89bd 9d0d 0b3e
000000c0: 9a77 c13d d256 c8bd f142 5bbd fc67 f73d
000000d0: a2a6 043e 74b7 1ebe 877b 83bd 94ed cc3d
000000e0: 7c7d b5bd 6845 b8bd f108 073e 10bc c23d
000000f0: 665d d5bd f1d5 cbbd ec89 1dbe c256 df3d
