app/data/UserModel/testing123/model.pth (torch, 56973 bytes, 10 tensors)

attention_pooling.attention.weight f4 [1, 192]
0.00017031758 0.00018496929 -0.00019407012 7.3338786e-05 0.00029666285 5.6437707e-06 2.5472618e-05 -0.00010504458
-0.0002576533 4.1836454e-05 8.701446e-05 0.0030671705 -7.89163e-05 -1.2163785e-06 0.004472083 5.0351623e-06
-0.0001506849 -0.00044890863 9.793596e-05 0.00012307617 2.0293046e-05 -0.00029912908 -6.7446435e-06 -1.7772901e-06
-1.9011906e-05 5.0352628e-05 -0.0038022115 -0.00010190263 5.4771554e-06 0.005979832 -3.461195e-05 -2.7203596e-05
0.005683245 0.00028148192 2.7072141e-05 -0.0041466304 0.00042880565 0.0018600086 -2.5951924e-05 0.0009343823
0.0050619696 0.0029183526 -4.185684e-05 0.00017787688 -2.7011885e-05 1.5761292e-05 -0.0001508823 0.005635335
9.741335e-05 0.00023832663 2.679075e-06 2.6449767e-05 -0.00017424296 0.0004410789 -3.5905134e-05 9.4780175e-05
0.0012744063 8.9773974e-05 -0.005924518 0.005301064 -1.2024842e-05 -0.00041776465 0.0004517614 0.0024999653
0.00032352365 -0.00045320066 -4.088501e-05 -0.00018257578 0.0035115625 0.00044787506 0.00018473399 -0.00045286305
1.670054e-06 5.3931337e-05 0.0001763451 0.00016249537 -6.466366e-05 -0.001437732 8.0893566e-05 6.5281136e-05
0.00015714849 -0.00017607542 -0.00033300888 -0.000429224 -0.00028831593 -0.00044499605 -1.5184193e-05 0.0001262776
0.0039349194 4.0755636e-05 0.00022330329 -0.00017085706 -0.00012614939 8.839108e-05 -1.814491e-05 -0.0017198357
2.6537841e-06 -3.754756e-05 0.000104303086 -0.00015258862 -0.00010023689 9.9726196e-05 0.00015424874 -0.0006152973
-0.0032779041 9.197004e-05 0.00010014423 -0.00035118937 8.8958535e-05 0.00047527364 -0.00017489886 0.00037912375
-0.0029883478 -0.00039091785 0.000111100446 0.0027703475 1.0403812e-05 -5.582068e-05 -0.00010289981 -1.7393177e-08
-2.5314055e-06 0.00020154411 4.014333e-06 7.3369424e-06 -5.4507e-06 8.281856e-05 4.111703e-05 6.3066e-05
0.00028824303 -2.767051e-05 -0.00018674768 0.00027109776 0.00055045524 -0.0001256715 0.00017180335 0.00027873155
-0.0056653246 0.0051584863 -0.0032098715 0.00036100677 0.00010442018 0.0059218183 0.0001321274 0.00041471538
-3.746042e-05 -6.170462e-05 3.4027773e-05 -0.003012068 6.0265473e-05 0.000348295 -9.991496e-05 -0.00044553744
-4.2093612e-05 -0.0027071007 0.0047692927 -0.003924216 -9.742543e-06 -3.6859787e-05 0.0009689032 0.0004257395
4.078924e-05 -4.84303e-06 -6.8533755e-06 1.1631793e-05 2.8940374e-05 0.00023514483 -0.00021891318 2.3008315e-06
1.2718579e-05 0.00010122742 0.0029839273 0.00042602015 0.00028299424 -0.00045338285 -0.00027852837 0.0001865224
-0.0001289937 0.0019399702 -0.00045138635 0.0004508561 -0.00012841982 0.00015300054 -0.0009530172 -0.0041307164
0.003194484 -6.3554326e-05 -0.0010793689 -0.00014622946 -0.002952979 -1.715596e-05 0.00031357972 7.006196e-06
00000000: 4797 3239 51f4 4139 4d7f 4bb9 76cd 9938
00000010: 6a89 9b39 9f5f bd36 08ae d537 614b dcb8
00000020: a415 87b9 8d79 2f38 887b b638 9502 493b
00000030: de7f a5b8 7242 a3b5 8d8a 923b b7f3 a836
00000040: 2b01 1eb9 7f5b ebb9 f862 cd38 020e 0139
00000050: fc3a aa37 6dd4 9cb9 0c50 e2b6 398b eeb5
00000060: c27b 9fb7 b931 5338 862e 79bb 8fb4 d5b8
00000070: 68c8 b736 77f2 c33b 4c2c 11b8 4733 e4b7
00000080: 843a ba3b dd93 9339 fb18 e337 75e0 87bb
00000090: 52d1 e039 88cb f33a 55b3 d9b7 56f1 743a
000000a0: e1de a53b d541 3f3b 718f 2fb8 7684 3a39
000000b0: 9597 e2b7 1e37 8437 2936 1eb9 9ea8 b83b
000000c0: 654a cc38 51e7 7939 28ca 3336 71e0 dd37
000000d0: fdb4 36b9 9c40 e739 d898 16b8 b8c4 c638
000000e0: fb09 a73a 0945 bc38 7622 c2bb 8cb4 ad3b
000000f0: 4ebe 49b7 6c07 dbb9 64da ec39 75d6 233b
00000100: 9c9e a939 909b edb9 f27b 2bb8 d071 3fb9
00000110: 3e22 663b c6d0 ea39 27b5 4139 406e edb9
00000120: 9e26 e035 5534 6238 47e9 3839 8563 2a39
00000130: 0a9c 87b8 4872 bcba 67a5 a938 8be7 8838
00000140: 3ac8 2439 e3a0 38b9 b297 aeb9 7809 e1b9
00000150: 1c29 97b9 5c4e e9b9 9dbf 7eb7 6369 0439
00000160: 7ff0 803b 08f1 2a38 8526 6a39 1828 33b9
00000170: f846 04b9 9a5e b938 e635 98b7 1c6c e1ba
00000180: aa17 3236 637c 1db8 4bbd da38 3200 20b9
00000190: 4536 d2b8 1824 d138 d5bd 2139 e74b 21ba
000001a0: 1bd2 56bb 0ae0 c038 8604 d238 d71f b8b9
000001b0: 408f ba38 262e f939 0e65 37b9 21c5 c639
000001c0: 28d8 43bb 1bf4 ccb9 99fe e838 b88e 353b
000001d0: 088c 2e37 0021 6ab8 eacb d7b8 0068 95b2
000001e0: 37e1 29b6 9655 5339 dcb2 8636 db2f f636
000001f0: 28e5 b6b6 e0ae ad38 1375 2c38 4d42 8438
00000200: 531f 9739 f81d e8b7 b3d1 43b9 2022 8e39
00000210: 6d4c 103a b0c6 03b9 1c26 3439 b722 9239
00000220: 30a4 b9bb 8508 a93b b55c 52bb 8245 bd39
00000230: 28fc da38 d00b c23b ae8b 0a39 286e d939
00000240: d21e 1db8 6a67 81b8 0bb9 0e38 1e66 45bb
00000250: 8fc5 7c38 5d9b b639 7089 d1b8 0697 e9b9
00000260: ac8d 30b8 9d69 31bb ba47 9c3b b696 80bb
00000270: e773 23b7 e599 1ab8 fefd 7d3a ca35 df39
00000280: 1d15 2b38 5081 a2b6 0cf6 e5b6 2c26 4337
00000290: fbc4 f237 3691 7639 0f8c 65b9 fc67 1a36
000002a0: e161 5537 0f4a d438 fe8d 433b 755b df39
000002b0: d85e 9439 04b4 edb9 7207 92b9 3a95 4339
000002c0: 7c42 07b9 9946 fe3a 0da8 ecb9 e260 ec39
000002d0: 6fa8 06b9 c56e 2039 e7d3 79ba f65a 87bb
000002e0: 8c5a 513b 7848 85b8 9c79 8dba 2c55 19b9
000002f0: c486 41bb 25ea 8fb7 f567 a439 c416 eb36

attention_pooling.layer_norm.weight f4 [192]
0.98079723 1.0058187 0.98412913 0.98350364 1.0044339 1.0208737 1.0116186 1.0172062
1.0153264 0.9981435 0.97796273 1.0204926 0.9779248 1.0047516 0.9822448 0.98960257
0.9773397 0.9787658 0.992519 0.9749799 0.9813741 0.9867926 1.0033493 0.9792554
0.98180956 0.96734273 1.0033996 0.9809885 1.0008719 1.002708 0.989191 0.9861966
1.0141592 0.9780292 1.0028228 0.99557465 0.9873673 0.9858464 0.9772856 0.99358296
1.0072845 0.9896505 1.0040156 0.9902958 1.011061 0.97816026 1.0095929 0.9761861
1.0100296 0.97633684 1.0164995 1.0136254 1.0072682 1.0175484 1.0217863 1.003543
1.0066714 1.0077311 0.9843203 0.9863844 0.998052 0.97860855 0.9818048 0.98964804
1.0280157 1.0061616 0.98366195 0.99893445 1.0016425 1.0140743 0.99667233 1.0316324
1.0110645 0.9879083 0.98198885 0.9733524 0.99775934 0.99529064 0.9798643 0.99546254
1.0089515 1.0060704 1.0127119 1.0086291 1.0100566 1.0219657 0.98142624 1.005584
1.0129536 1.0153698 0.9935297 1.0011885 0.9961764 0.9896879 1.0220934 1.0084778
1.0197426 0.98032415 1.0134062 1.003539 1.0185318 1.0170519 1.0175022 0.9845707
1.0060967 0.9905577 1.0219076 0.9861733 1.0130266 1.0092176 0.9876765 1.0034319
1.0025616 0.9845364 1.0239308 1.0141624 0.99472934 1.011184 0.995454 0.99631923
0.98506784 1.0025636 1.0009346 1.0110782 0.9809718 0.9768518 1.0017627 0.9878245
1.0022845 1.0034417 1.0238888 0.9793828 1.0243301 0.9833407 1.0015566 0.98755217
1.0161105 1.0172161 0.98155147 1.0071774 0.9927892 0.98844326 0.9857218 1.0107796
1.003497 0.9873421 1.0086278 0.9831796 1.0167369 1.0116904 0.9893366 0.9711215
0.98336184 0.9851194 0.99902195 0.9775748 1.0126956 1.0203631 1.0120313 1.0043874
0.99933124 1.0112903 0.98174065 0.9972434 1.0129344 0.9881453 1.0275725 0.9825733
0.9938792 1.0313425 1.0080216 1.0163192 0.98922503 0.9710642 0.9914201 0.9861178
1.0077717 0.99443555 0.98329073 0.98949236 1.0087113 0.9891004 1.003456 1.0062443
1.021555 1.000711 1.0125543 0.9991 0.9845655 1.0087466 1.0034015 1.0259885
00000000: 8715 7b3f abbe 803f e3ef 7b3f e5c6 7b3f
00000010: 4a91 803f fdab 823f b87c 813f d033 823f
00000020: 37f6 813f 5586 7f3f c45b 7a3f 809f 823f
00000030: 4859 7a3f b39b 803f 6574 7b3f 9856 7d3f
00000040: ef32 7a3f 6590 7a3f ba15 7e3f 4898 793f
00000050: 553b 7b3f 719e 7c3f c06d 803f 7bb0 7a3f
00000060: df57 7b3f c6a3 773f 666f 803f 1022 7b3f
00000070: 921c 803f bc58 803f 9f3b 7d3f 6177 7c3f
00000080: f8cf 813f 1f60 7a3f 7f5c 803f fbdd 7e3f
00000090: 1ac4 7c3f 6e60 7c3f 642f 7a3f 745b 7e3f
000000a0: b3ee 803f bc59 7d3f 9583 803f 0784 7d3f
000000b0: 726a 813f b668 7a3f 573a 813f 55e7 793f
000000c0: a648 813f 36f1 793f a81c 823f 7abe 813f
000000d0: 2aee 803f 073f 823f e5c9 823f 1974 803f
000000e0: 9cda 803f 55fd 803f 6afc 7b3f b083 7c3f
000000f0: 5680 7f3f 1786 7a3f 8f57 7b3f 9359 7d3f
00000100: 0596 833f e7c9 803f 45d1 7b3f 2bba 7f3f
00000110: d235 803f 30cd 813f eb25 7f3f 880c 843f
00000120: 906a 813f 8fe7 7c3f 9f63 7b3f 9f2d 793f
00000130: 286d 7f3f 5ecb 7e3f 63d8 7a3f a2d6 7e3f
00000140: 5325 813f eac6 803f 8ba0 813f c21a 813f
00000150: 8949 813f c6cf 823f c03e 7b3f fab6 803f
00000160: 77a8 813f a3f7 813f f657 7e3f f226 803f
00000170: 6b05 7f3f 305c 7d3f f5d3 823f cd15 813f
00000180: ed86 823f 86f6 7a3f 4bb7 813f f773 803f
00000190: 405f 823f c22e 823f 833d 823f d30c 7c3f
000001a0: c7c7 803f 3095 7d3f decd 823f da75 7c3f
000001b0: dbaa 813f 0b2e 813f 5ed8 7c3f 7570 803f
000001c0: f053 803f 940a 7c3f 2a10 833f 13d0 813f
000001d0: 95a6 7e3f 7a6e 813f 13d6 7e3f c70e 7f3f
000001e0: 682d 7c3f 0154 803f a01e 803f 036b 813f
000001f0: f820 7b3f f612 7a3f c339 803f 11e2 7c3f
00000200: dc4a 803f c770 803f ca0e 833f d5b8 7a3f
00000210: 401d 833f 37bc 7b3f 0233 803f 38d0 7c3f
00000220: e90f 823f 2334 823f f546 7b3f 30eb 803f
00000230: 6f27 7e3f 9e0a 7d3f 4458 7c3f 3a61 813f
00000240: 9772 803f 74c2 7c3f b71a 813f a9b1 7b3f
00000250: 6f24 823f 127f 813f 2a45 7d3f 6b9b 783f
00000260: 9abd 7b3f c930 7c3f e7bf 7f3f 5842 7a3f
00000270: 02a0 813f 429b 823f 3e8a 813f c48f 803f
00000280: 2cd4 7f3f f671 813f 5b53 7b3f 584b 7f3f
00000290: d6a7 813f 17f7 7c3f 7f87 833f ec89 7b3f
000002a0: de6e 7e3f 0803 843f da06 813f bf16 823f
000002b0: da3d 7d3f aa97 783f b5cd 7d3f 3772 7c3f
000002c0: aafe 803f 5493 7e3f f1b8 7b3f 5f4f 7d3f
000002d0: 741d 813f af35 7d3f 3f71 803f 9dcc 803f
000002e0: 50c2 823f 4c17 803f 619b 813f 05c5 7f3f
000002f0: 7c0c 7c3f 9c1e 813f 766f 803f 9753 833f

attention_pooling.layer_norm.bias f4 [192]
-1.267781e-06 2.587202e-06 1.5185242e-06 -3.0737888e-06 3.6658275e-07 -1.4403372e-06 1.3822008e-06 7.494972e-07
-5.859831e-07 -3.1612026e-06 1.8763236e-06 -2.7803526e-06 1.5535871e-06 3.0708648e-06 1.0001422e-06 2.4696362e-07
1.2967854e-06 5.137822e-07 -1.6795485e-07 -2.781423e-06 7.407772e-07 -3.481121e-06 3.1130713e-07 8.4114595e-07
-1.0572085e-06 1.8476461e-06 2.8942506e-07 2.6541552e-06 -4.154744e-07 -1.8773907e-06 8.314486e-08 1.1925775e-06
3.5431663e-06 1.3732243e-06 -1.0150723e-06 -1.8535407e-06 -1.861959e-07 2.611031e-06 -2.316596e-06 3.989128e-07
2.1911421e-07 3.6408396e-06 4.3037232e-08 1.4166951e-06 -2.0226582e-06 5.132853e-07 3.2944768e-06 -2.624532e-06
-2.5734098e-06 2.775481e-06 -2.3349112e-06 -1.6128172e-06 -1.3066991e-06 -2.8895809e-06 7.6414824e-07 -2.1811636e-06
1.5608371e-08 6.9468905e-07 2.8865662e-07 -1.6557133e-06 -1.0313553e-06 -4.30092e-07 -9.184544e-07 3.2470166e-06
-7.6453296e-07 -3.509366e-06 2.3146106e-06 -5.0290737e-07 -4.321858e-06 6.118593e-06 -9.41889e-07 1.3738702e-07
1.0653068e-06 2.8826906e-07 -1.9114215e-07 -1.0943007e-06 1.9255388e-06 -7.397132e-08 -1.4804745e-06 7.13271e-07
4.06463e-08 -3.3793092e-06 -3.5441093e-07 -7.386575e-07 1.8383563e-06 -1.4312097e-06 1.044436e-06 1.3434699e-06
-3.165087e-06 -2.2740169e-06 -2.4252058e-06 7.135334e-07 2.106121e-06 -1.6674061e-06 -1.2089432e-06 1.6349697e-06
3.2935202e-06 1.140273e-06 -2.5018967e-06 -2.8214248e-07 -1.5792966e-06 2.2276313e-06 -5.3864835e-07 -3.4888653e-06
-1.261922e-06 6.117767e-07 -2.8173893e-06 2.7750812e-06 4.2168747e-07 4.1075427e-06 -6.42278e-07 1.0802446e-06
3.6840877e-06 7.865623e-07 -2.7334856e-06 -1.2746252e-06 1.1458109e-06 -1.5249088e-07 5.5756487e-08 5.1038967e-08
-3.1121752e-07 5.2605105e-07 2.816095e-07 1.5651984e-06 -8.1583244e-07 -1.4201003e-06 1.2139407e-06 -1.5220374e-07
3.5897133e-06 1.1463854e-06 3.0605854e-06 -9.292148e-07 9.641944e-07 -1.3145108e-06 8.828238e-07 2.073061e-06
-7.150426e-07 3.1935713e-08 3.3981082e-06 -2.2288614e-07 -2.001438e-06 1.8822537e-06 9.543419e-08 -2.4806166e-06
5.308833e-08 -2.6086118e-06 -7.310724e-07 1.5917602e-06 -1.939695e-06 -4.5129354e-06 8.341267e-07 -4.2532463e-07
-1.2324274e-06 5.809039e-07 -7.955173e-07 -3.4564914e-06 3.4551504e-06 -5.3498206e-07 -1.0843355e-06 5.45564e-07
2.584117e-06 1.9759898e-06 -1.1175426e-06 1.0976215e-06 -1.6912154e-06 2.4512817e-06 -4.2034526e-07 -1.5353473e-06
-1.3385525e-06 -6.845913e-07 -5.782786e-06 4.5889072e-07 -6.3965297e-07 4.919317e-06 -2.0067355e-06 -4.1017274e-06
7.9153295e-07 2.7747205e-06 2.6198607e-06 -1.7665848e-06 -2.196741e-06 5.0452163e-06 2.2116676e-06 -2.6302314e-06
-2.8598265e-07 -1.1830352e-06 -5.572443e-07 -1.8339185e-07 5.98464e-07 -2.654328e-06 -9.936483e-07 2.9247722e-06
00000000: a028 aab5 cb9f 2d36 18d0 cb35 4a47 4eb6
00000010: c0ce c434 9c51 c1b5 0f84 b935 0e31 4935
00000020: 744c 1db5 0c25 54b6 fdd5 fb35 1896 3ab6
00000030: d984 d035 0e15 4e36 a03c 8635 6c96 8434
00000040: 350d ae35 d8ea 0935 1457 34b4 7ca8 3ab6
00000050: d2d9 4635 349d 69b6 ba21 a734 1ccb 6135
00000060: 68e5 8db5 a3fc f735 4762 9b34 0a1e 3236
00000070: 5e0e dfb4 a7fa fbb5 5f8d b233 a710 a035
00000080: 22c7 6d36 a14f b835 9e3d 88b5 2cc7 f8b5
00000090: 24ed 47b4 2c39 2f36 d176 1bb6 282a d634
000000a0: a845 6b34 2655 7436 f0d7 3833 4625 be35
000000b0: 01bd 07b6 b2c8 0935 ae16 5d36 1e21 30b6
000000c0: d8b2 2cb6 6742 3a36 78b1 1cb6 fa77 d8b5
000000d0: d761 afb5 9fea 41b6 de1f 4d35 1b60 12b6
000000e0: 2c13 8632 ab7a 3a35 aaf8 9a34 e039 deb5
000000f0: 196d 8ab5 65e7 e6b4 b58b 76b5 52e7 5936
00000100: 4e3a 4db5 7382 6bb6 b554 1b36 88ff 06b5
00000110: 7a04 91b6 504e cd36 1fd6 7cb5 a884 1334
00000120: aafb 8e35 66c3 9a34 c13c 4db4 e3df 92b5
00000130: 8138 0136 2ada 9eb3 b7b4 c6b5 9c77 3f35
00000140: 1493 2e33 17c8 62b6 de45 beb4 2848 46b5
00000150: 71bd f635 fe17 c0b5 8c2e 8c35 4651 b435
00000160: c867 54b6 509b 18b6 b8c0 22b6 a489 3f35
00000170: e256 0d36 a3cb dfb5 f942 a2b5 2271 db35
00000180: 3f06 5d36 7b0b 9935 42e6 27b6 5e79 97b4
00000190: 38f8 d3b5 6a7e 1536 a297 10b5 4022 6ab6
000001a0: 4f5f a9b5 fa38 2435 6112 3db6 883b 3a36
000001b0: 4964 e234 86d3 8936 0269 2cb5 ecfc 9035
000001c0: 253c 7736 2624 5335 ed70 37b6 ca13 abb5
000001d0: c3c9 9935 60bc 23b4 e878 6f33 f035 5b33
000001e0: 6915 a7b4 f435 0d35 1d30 9734 cf13 d235
000001f0: 94ff 5ab5 469a beb5 afee a235 726d 23b4
00000200: cee6 7036 81dd 9935 7564 4d36 286f 79b5
00000210: 7869 8135 3f6e b0b5 31fb 6c35 eb1e 0b36
00000220: 5af1 3fb5 b029 0933 0e0b 6436 7a52 6fb4
00000230: 7150 06b6 bfa1 fc35 80f1 cc33 ab78 26b6
00000240: 3c03 6433 9c0f 2fb6 ea3e 44b5 77a4 d535
00000250: b52b 02b6 d26d 97b6 c0e8 5f35 2c58 e4b4
00000260: e269 a5b5 69ef 1b35 888b 55b5 12f6 67b6
00000270: 08df 6736 b09b 0fb5 7c89 91b5 df72 1235
00000280: cb6a 2d36 3f9b 0436 79fe 95b5 fd51 9335
00000290: b8fd e2b5 b380 2436 d0ab e1b4 2212 ceb5
000002a0: 50a8 b3b5 c2c4 37b5 c109 c2b6 765d f634
000002b0: 9eb4 2bb5 9c10 a536 74ab 06b6 92a1 89b6
000002c0: bb79 5435 5635 3a36 ddd0 2f36 641b edb5
000002d0: b96b 13b6 144a a936 296c 1436 0883 30b6
000002e0: 2889 99b4 c8c8 9eb5 8995 15b5 5eea 44b4
000002f0: 22a6 2035 0221 32b6 7f5d 85b5 3447 4436

fc1.weight f4 [64, 192]
0.0046856073 -0.042868327 -0.024300542 -0.028757697 -0.047297124 -0.069471836 0.046684884 0.0038730477
0.024193589 -0.04001456 -0.06314012 -0.025052728 0.01176187 -0.042198144 -0.076571286 0.024225527
0.0859644 0.038737405 -0.020948406 -0.037013777 -0.030224571 0.055041354 0.045514382 -0.07196825
0.023870656 0.0056032995 0.0129988985 -0.0041882596 -0.062014602 -0.014009577 0.01790584 0.041378222
0.04790159 -0.0588068 0.054737575 -0.026175367 -0.048154633 -0.01654462 0.011134358 -0.07213163
0.045676056 -0.064718835 0.07206396 -0.005741976 -0.021232868 -0.012389706 -0.060623795 0.011817138
0.07512217 -0.037548702 0.07279814 -0.01109366 -0.028055744 0.07653982 0.008640052 -0.024419507
0.04288698 0.03136998 -0.07199908 0.028581949 -0.013057926 -0.003952287 0.012232092 0.035194155
-0.032263014 -0.011235425 0.047310896 -0.044222996 -0.041614044 0.02531837 -0.057633 -0.03244111
0.061396822 0.045789212 0.072314076 0.07302828 -0.002919839 0.03293756 0.03808435 -0.05026354
0.01160899 0.052153077 -0.017085824 0.060165625 0.04636166 -0.008586631 0.021962773 0.064960904
-0.017843897 0.0716274 -0.076736085 0.07003928 -0.0024623442 -0.028345736 -0.06837312 0.020469356
-0.04162755 0.06586176 -0.03850108 0.058235075 -0.045862 -0.030647675 -0.088215955 0.015628235
0.06961147 0.02939248 0.011103565 0.09885955 0.04212074 -0.013451704 -0.010809001 0.010411916
0.022568466 -0.033513874 -0.069719985 -0.030432416 -0.061364286 -0.029311446 0.04429306 -0.027843187
-0.022723839 -0.009345284 0.06592912 -0.0076334444 -0.006084863 -0.026476495 -0.033307087 0.0032542234
-0.0019729391 -0.044321783 0.072250776 0.009963128 0.095369995 0.022828298 0.044259526 0.01593348
-0.01270156 -0.055632252 -0.029393632 0.046176877 0.035152413 0.012496403 0.027731847 0.0744634
-0.047176525 -0.016930725 -0.062316194 -0.045415398 0.0041840905 0.09538679 0.031683393 0.04636185
-0.016957909 0.012580211 0.033395097 -0.028668318 -0.005206543 0.0767723 0.05191156 0.06018506
-0.061190486 0.02312959 0.023076823 -0.0052508637 -0.011793014 -0.04215577 -0.014988349 -0.017325073
-0.015582128 0.08644149 0.021476867 -0.02560125 -0.023967408 -0.0075640627 -0.0069318013 0.058466826
-0.00540637 0.0324371 0.055246577 0.015747486 -0.027768511 0.03816193 0.03301663 -0.0051286933
-0.047582503 0.04458637 0.012779904 -0.08799603 0.03957649 0.01141187 -0.010703547 -0.02229709
0.0035109364 0.04530298 0.009034821 -0.018962307 -0.006504765 -0.028787615 0.004857353 -0.06749715
-0.0409252 0.05621074 -0.037993092 -0.04478818 0.039724644 0.014342246 -0.06117637 0.016527103
-0.00020335065 0.031309683 -0.009952827 -0.06883374 -0.028749052 -0.03477515 -0.03473994 -0.012379464
-0.011042831 -0.0017614533 -0.014280127 0.019640435 0.0038234175 -0.03390377 0.02172114 0.051241778
0.016587028 0.0069636856 0.0021316814 -0.0034880927 0.038967654 0.0036004295 -0.032001927 0.0049069715
-0.08606047 0.0010704852 0.04177627 -0.023298696 0.08365065 0.04688671 0.015171781 -0.016363254
-0.039595995 0.043455783 0.02005524 -0.04730581 -0.048340525 -0.0040333318 0.094141416 -0.018812913
-0.01609063 0.04402854 -0.013278782 -0.016951986 -0.001737085 -0.029328233 0.016075421 0.077620186
00000000: b989 993b b396 2fbd ee11 c7bc 4395 ebbc
00000010: a1ba 41bd 4047 8ebd a638 3f3d f5d2 7d3b
00000020: a231 c63c 4fe6 23bd 9b4f 81bd 613b cdbc
00000030: dcb4 403c f6d7 2cbd 68d1 9cbd 9d74 c63c
00000040: 1a0e b03d 1dab 1e3d fe9b abbc c29b 17bd
00000050: 8599 f7bc 0b73 613d 4a6d 3a3d 1764 93bd
00000060: 658c c33c e29b b73b 55f9 543c ab3d 89bb
00000070: 0603 7ebd 6d88 65bc 45af 923c 367c 293d
00000080: 7534 443d 66df 70bd 8234 603d b96d d6bc
00000090: cb3d 45bd 9588 87bc e26c 363c bfb9 93bd
000000a0: d116 3b3d 4f8b 84bd 4596 933d 3027 bcbb
000000b0: 8df0 adbc 32fe 4abc a850 78bd ab9c 413c
000000c0: a7d9 993d abcc 19bd 3117 953d 2fc2 35bc
000000d0: 29d5 e5bc e9c0 9c3d 018f 0d3c 6b0b c8bc
000000e0: 42aa 2f3d cf7d 003d 4174 93bd b124 ea3c
000000f0: e9f0 55bc 3082 81bb 1d69 483c bf27 103d
00000100: 3926 04bd ca14 38bc 12c9 413d 2c23 35bd
00000110: 7d73 2abd 7868 cf3c 9510 6cbd f8e0 04bd
00000120: 3c7b 7b3d 788d 3b3d 6719 943d da8f 953d
00000130: c55a 3fbb 89e9 063d 56fe 1b3d 24e1 4dbd
00000140: a233 3e3c 779e 553d 92f7 8bbc 3b70 763d
00000150: b9e5 3d3d f1ae 0cbc 46eb b33c 390a 853d
00000160: 5d2d 92bc 63b1 923d cf27 9dbd c170 8f3d
00000170: 485f 21bb 5135 e8bc 3507 8cbd 5aaf a73c
00000180: a681 2abd 88e2 863d 4fb3 1dbd e787 6e3d
00000190: cbd9 3bbd d510 fbbc 91aa b4bd c906 803c
000001a0: 7590 8e3d 80c8 f03c baeb 353c e076 ca3d
000001b0: cc86 2c3d 8964 5cbc 3c18 31bc be96 2a3c
000001c0: 81e1 b83c d845 09bd 5ac9 8ebd 674d f9bc
000001d0: 1e59 7bbd 8f1e f0bc a46c 353d 6517 e4bc
000001e0: 5827 babc f61c 19bc d905 873d f921 fabb
000001f0: 8863 c7bb 3ce5 d8bc 036d 08bd cf44 553b
00000200: 6d4c 01bb c28a 35bd 37f8 933d 633c 233c
00000210: 5851 c33d 6902 bb3c 7a49 353d ee86 823c
00000220: 341a 50bc a5de 63bd eaca f0bc f723 3d3d
00000230: fafb 0f3d b7bd 4c3c e62d e33c 4480 983d
00000240: 2c3c 41bd 4eb2 8abc 443f 7fbd 7f05 3abd
00000250: b21a 893b 265a c33d 72c6 013d ece5 3d3d
00000260: 50eb 8abc 3b1d 4e3c 4cc9 083d d2d9 eabc
00000270: a69b aabb cc3a 9d3d 37a1 543d 9c84 763d
00000280: e0a2 7abd 447a bd3c 9b0b bd3c 700f acbb
00000290: 7c37 41bc 87ab 2cbd b191 75bc 50ed 8dbc
000002a0: 2f4c 7fbc 3c08 b13d 41f0 af3c b6b9 d1bc
000002b0: 4c57 c4bc f5db f7bb 2a24 e3bb e97a 6f3d
000002c0: eb27 b1bb c4dc 043d 3c4a 623d df00 813c
000002d0: ca7a e3bc af4f 1c3d 723c 073d 990e a8bb
000002e0: dfe5 42bd 33a0 363d cd62 513c 4337 b4bd
000002f0: f51a 223d daf8 3a3c ee5d 2fbc 63a8 b6bc
00000300: bd17 663b 9e8f 393d c906 143c d756 9bbc
00000310: ec25 d5bb 01d4 ebbc 6e2a 9f3b f23b 8abd
00000320: 2fa1 27bd 3c3d 663d a59e 1bbd d073 37bd
00000330: 4fb6 223d bdfb 6a3c 1394 7abd d963 873c
00000340: 863a 55b9 953e 003d 2f11 23bc b4f8 8cbd
00000350: 2283 ebbc 6370 0ebd 784b 0ebd 3cd3 4abc
00000360: feec 34bc 91e0 e6ba 32f7 69bc fae4 a03c
00000370: 4d92 7a3b aede 0abd 88f0 b13c e6e2 513d
00000380: 85e1 873c a12f e43b aeb3 0b3b 7c98 64bb
00000390: 8c9c 1f3d 2ff5 6b3b 7414 03bd a9ca a03b
000003a0: 7940 b0bd 864f 8c3a 981d 2b3d e8dc bebc
000003b0: 0851 ab3d 470c 403d 1093 783c 3b0c 86bc
000003c0: 692f 22bd b1fe 313d e34a a43c bdc3 41bd
000003d0: b700 46bd 0a2a 84bb 37cd c03d 8a1d 9abc
000003e0: 7fd0 83bc 4557 343d 408f 59bc e4de 8abc
000003f0: e7ae e3ba c341 f0bc 9ab0 833c 55f7 9e3d

fc1.bias f4 [64]
-5.125243e-05 -0.0004531214 -0.00018567422 0.00013970728 -0.0026206912 2.3886123e-05 0.0003768319 0.0004134683
9.0699345e-05 -8.412886e-06 -0.00018415315 -0.0002859377 -0.00010213326 -3.7024445e-05 0.002911798 0.0029763677
5.617276e-07 -6.087361e-05 6.901369e-05 -0.00049564335 0.0004001884 -1.1079919e-06 1.3512768e-05 -0.00016699356
5.1784464e-05 0.003408222 0.005287253 -0.0010700801 0.00010269528 -5.1564508e-05 0.0021997318 6.516918e-05
-3.9252736e-06 -0.00318967 3.3731624e-06 -1.5733043e-06 0.00016778342 0.0009768822 2.1056836e-05 0.00015371377
-0.00043661357 0.00045080262 0.00035238924 -3.2633416e-05 -0.00032830512 -0.0002928416 -0.0054935208 -0.00014328164
0.002667434 -6.9535294e-05 -0.00036591274 1.0393421e-05 0.00039207592 0.00045388454 0.0026798928 -8.2953983e-07
4.4318476e-05 -5.219837e-06 -0.00041405475 0.00045238726 -9.208835e-05 -0.0003078923 -0.0040867627 0.0020932844
00000000: e1f7 56b8 ed90 edb9 8bb1 42b9 637e 1239
00000010: e7bf 2bbb 0f5f c837 8591 c539 c7c6 d839
00000020: d735 be38 1225 0db7 3c19 41b9 e9e9 95b9
00000030: 6030 d6b8 b24a 1bb8 ddd3 3e3b 2a0f 433b
00000040: a0c9 1635 8b52 7fb8 71bb 9038 10ee 01ba
00000050: 61d0 d139 50b6 94b5 e6b4 6237 fe1a 2fb9
00000060: 2533 5938 7a5c 5f3b b140 ad3b ee41 8cba
00000070: 1c5e d738 f846 58b8 6029 103b 70ab 8838
00000080: d8b5 83b6 c809 51bb 7d5e 6236 532a d3b5
00000090: 05ef 2f39 ba0a 803a 36a3 b037 3a2e 2139
000000a0: 48e9 e4b9 b459 ec39 e2c0 b839 dddf 08b8
000000b0: 5e20 acb9 8988 99b9 fe02 b4bb df3d 16b9
000000c0: 1ed0 2e3b 7ad3 91b8 fad7 bfb9 675f 2e37
000000d0: 8a8f cd39 5af7 ed39 24a1 2f3b 8bad 5eb5
000000e0: 9ae2 3938 0f26 afb6 7d15 d9b9 642e ed39
000000f0: 8e1f c1b8 9b6c a1b9 40ea 85bb 7c2f 093b

bn1.weight f4 [64]
1.0773396 1.0601472 1.063049 1.0504966 1.0505286 1.0710301 1.0633792 1.0887091
1.0725851 1.0778568 1.0577619 1.0420405 1.0378999 1.0712084 1.0689379 1.080248
1.0665216 1.0297694 1.0667595 1.0758631 1.0596964 1.0830382 1.0658429 1.070985
1.071313 1.0343415 1.0658885 1.0716317 1.0557292 1.0643176 1.064701 1.0645326
1.0717771 1.0745059 1.0746977 1.0660942 1.0637387 1.0759792 1.0777024 1.0788754
1.0714842 1.0599668 1.0553026 1.0604866 1.0598981 1.0463513 1.0717663 1.0634372
1.0828009 1.0953023 1.0634888 1.0690997 1.0552821 1.0895727 1.0754021 1.0210886
1.0131775 1.0418274 1.0673445 1.0941747 1.0766109 1.0751486 1.0638014 1.0398749
00000000: 44e6 893f e7b2 873f fd11 883f ac76 863f
00000010: b977 863f 8417 893f cf1c 883f d25a 8b3f
00000020: 784a 893f 36f7 893f be64 873f 9561 853f
00000030: e7d9 843f 5b1d 893f f5d2 883f 9145 8a3f
00000040: c883 883f 7ccf 833f 938b 883f e2b5 893f
00000050: 22a4 873f ffa0 8a3f 8a6d 883f 0916 893f
00000060: c920 893f 4d65 843f 096f 883f 3a2b 893f
00000070: 2222 873f 8f3b 883f 1f48 883f 9b42 883f
00000080: fe2f 893f 6989 893f b28f 893f c675 883f
00000090: 9728 883f b0b9 893f 27f2 893f 9718 8a3f
000000a0: 6526 893f feac 873f 2814 873f 06be 873f
000000b0: beaa 873f d7ee 853f a32f 893f b61e 883f
000000c0: 3899 8a3f de32 8c3f 6720 883f 42d8 883f
000000d0: 7c13 873f 1e77 8b3f c7a6 893f 08b3 823f
000000e0: cdaf 813f 9a5a 853f bf9e 883f eb0d 8c3f
000000f0: 63ce 893f 789e 893f a52a 883f 9f1a 853f

bn1.bias f4 [64]
0.07717693 0.0535941 0.038318504 0.048416182 0.056179598 0.07028629 0.060960498 0.08780256
0.07621639 0.07936488 0.059856936 0.04566468 0.06191716 0.06719948 0.06898899 0.08523086
0.06345989 0.042745486 0.06930584 0.083859384 0.059855342 0.080474935 0.062218063 0.06348354
0.06446739 0.028609393 0.06912446 0.076075375 0.054295406 0.06440021 0.05126192 0.06403824
0.070352055 0.07396008 0.056381382 0.069212675 0.062823534 0.07270034 0.07784322 0.07351459
0.07151248 0.059816606 0.036536276 0.059292622 0.05815994 0.04031924 0.073002785 0.063893236
0.08224589 0.09140402 0.062047094 0.0741613 0.05086075 0.0796212 0.07501783 0.02466231
0.019363433 0.03320112 0.06435304 0.09331941 0.07171983 0.072277784 0.05090347 0.037597425
00000000: f00e 9e3d 7d85 5b3d ddf3 1c3d 0c50 463d
00000010: 941c 663d 42f2 8f3d b7b1 793d d4d1 b33d
00000020: 5717 9c3d 0e8a a23d 8c2c 753d e30a 3b3d
00000030: d99c 7d3d e29f 893d 194a 8d3d 848d ae3d
00000040: 42f7 813d e415 2f3d 38f0 8d3d 78be ab3d
00000050: e02a 753d 0bd0 a43d 5ed8 7e3d a903 823d
00000060: 7b07 843d 3f5e ea3c 2091 8d3d 68cd 9b3d
00000070: dc64 5e3d 42e4 833d 05f8 513d 7b26 833d
00000080: bd14 903d 6278 973d 2af0 663d 60bf 8d3d
00000090: a0a9 803d eae3 943d 446c 9f3d d18e 963d
000000a0: 2375 923d 4202 753d 10a7 153d d2dc 723d
000000b0: 1e39 6e3d ca25 253d 7c82 953d 75da 823d
000000c0: 8870 a83d 0832 bb3d 1825 7e3d e1e1 973d
000000d0: 5d53 503d 7110 a33d f3a2 993d 9d08 ca3c
000000e0: 10a0 9e3c e6fd 073d 87cb 833d 3f1e bf3d
000000f0: d9e1 923d 6006 943d 2880 503d c2ff 193d

bn1.running_mean f4 [64]
-0.16803749 0.17378283 0.22774717 0.1043386 0.26659527 0.15692283 0.079587676 -0.12569882
-0.08558749 -0.1751495 -0.11263717 0.15824108 0.22335707 0.15907124 -0.21546906 -0.1810548
-0.1173661 0.1727244 -0.28031936 -0.12960772 0.091264166 0.16157752 0.13887657 0.18496977
-0.19783434 0.07312073 0.27294955 -0.15953657 -0.027595472 -0.07909438 0.13483538 0.14182118
0.11259387 -0.23841038 0.22854765 0.2054824 0.20336805 -0.17347054 -0.16254453 -0.16506115
0.15471847 -0.19242932 0.18106742 0.15289702 0.08731593 -0.16359432 -0.14572732 -0.16096117
-0.32437322 0.025886849 0.09500116 0.23727416 0.1457232 -0.16368549 -0.022647409 0.25019777
0.09109256 -0.31365317 0.1968125 0.14494953 -0.07769529 0.0044173785 0.15796807 -0.09568752
00000000: 0512 2cbe 20f4 313e 8e36 693e 7aaf d53d
00000010: 2d7f 883e 61b0 203e ddfe a23d 31b7 00be
00000020: 7e48 afbd 645a 33be 51ae e6bd f309 223e
00000030: b7b7 643e 92e3 223e eca3 5cbe 6e66 39be
00000040: a35d f0bd aade 303e 0586 8fbe e3b7 04be
00000050: b5e8 ba3d 9474 253e a935 0e3e b768 3d3e
00000060: 1695 4abe 52c0 953d 0bc0 8b3e 8e5d 23be
00000070: e60f e2bc 3cfc a1bd 4912 0a3e 9239 113e
00000080: 9d97 e63d da21 74be 6508 6a3e fa69 523e
00000090: b73f 503e 43a2 31be 1372 26be ca05 29be
000000a0: 856e 1e3e 310c 45be bd69 393e 0991 1c3e
000000b0: b2d2 b23d 4585 27be 8b39 15be 01d3 24be
000000c0: 3f14 a6be a810 d43c f88f c23d fff7 723e
000000d0: 7638 153e 2b9d 27be 0f87 b9bc ec19 803e
000000e0: bc8e ba3d 2697 a0be 3789 493e a66d 143e
000000f0: b51e 9fbd a8bf 903b 62c2 213e d2f7 c3bd

bn1.running_var f4 [64]
2.2553713 1.5028732 1.3369617 1.3175226 1.2496301 1.6767142 1.1689917 1.9320935
2.0116282 0.82273483 1.1570115 1.2348931 1.0042038 0.6989322 0.9163445 1.556674
1.6949452 1.7014581 2.34833 1.6268079 1.3919326 1.7994683 1.8218066 1.4128749
1.260027 1.189091 2.0758874 0.96287084 0.49420264 1.5269281 1.1050175 1.3360534
0.713349 0.7395273 1.7771858 1.4414275 1.3635035 1.0923665 1.77731 1.6270585
1.0173489 0.90976465 1.120093 1.0979544 1.0364698 1.4656225 1.373842 1.3449771
2.3495705 1.8558533 1.3923848 1.500094 1.3880128 1.5495553 1.382362 1.4151255
1.605512 1.8834894 0.9931457 1.6678643 1.5558788 1.6865216 1.6621306 1.6331862
00000000: 0158 1040 265e c03f 9021 ab3f 95a4 a83f
00000010: e1f3 9f3f 929e d63f 85a1 953f d74e f73f
00000020: 84be 0040 c09e 523f f418 943f fa10 9e3f
00000030: c089 803f 38ed 323f 8e95 6a3f 1841 c73f
00000040: f7f3 d83f 61c9 d93f 0a4b 1640 3e3b d03f
00000050: d92a b23f fa54 e63f f530 e93f 16d9 b43f
00000060: 9148 a13f 2234 983f 57db 0440 b47e 763f
00000070: 2108 fd3e 6172 c33f 3771 8d3f cc03 ab3f
00000080: 0a9e 363f a951 3d3f d37a e33f b280 b83f
00000090: 4887 ae3f aad2 8b3f e57e e33f 7443 d03f
000000a0: 7d38 823f 56e6 683f 355f 8f3f c589 8c3f
000000b0: 0bab 843f 8599 bb3f 0eda af3f 3628 ac3f
000000c0: 5d5f 1640 9a8c ed3f aa39 b23f 1503 c03f
000000d0: 67aa b13f d457 c63f 3df1 b03f d522 b53f
000000e0: 6b81 cd3f 2e16 f13f cc3e 7e3f 947c d53f
000000f0: 0927 c73f f1df d73f b2c0 d43f 3f0c d13f

fc2.weight f4 [1, 64]
-0.05212295 0.13248728 0.059023775 0.100568876 0.15854551 0.11000167 0.11455756 -0.06523431
-0.12602107 -0.07595869 -0.113512084 0.035983484 0.072877996 0.043735135 -0.1201993 -0.091264494
-0.11739494 0.10854739 -0.14556739 -0.10838788 0.16192825 0.06871282 0.1067368 0.059553884
-0.10894358 0.10891089 0.095817745 -0.153385 0.14819203 -0.14880727 0.1582989 0.04782112
0.07436581 -0.13027722 0.11207713 0.13926482 0.09517767 -0.09302803 -0.109074265 -0.092665195
0.088423856 -0.16817407 0.11421675 0.11113348 0.15551798 -0.09534289 -0.09982847 -0.11915073
-0.08627074 0.06394211 0.13599667 0.115659274 0.07728189 -0.08502399 -0.13834609 0.07063958
0.120555334 -0.08163884 0.12594151 0.05828437 -0.19329391 -0.1720542 0.15116061 -0.10142138
00000000: e07e 55bd bfaa 073e eac2 713d 0ef7 cd3d
00000010: c159 223e 8e48 e13d 279d ea3d 9199 85bd
00000020: ab0b 01be 3b90 9bbd 0679 e8bd 6b63 133d
00000030: 0f41 953d 9d23 333d 0d2b f6bd e1e8 babd
00000040: c26c f0bd 184e de3d 9e0f 15be 77fa ddbd
00000050: 85d0 253e 4fb9 8c3d d398 da3d c6ee 733d
00000060: d01d dfbd ac0c df3d 183c c43d f510 1dbe
00000070: a7bf 173e ef60 18be 1b19 223e 14e0 433d
00000080: 1a4d 983d 6467 05be b288 e53d 709b 0e3e
00000090: 83ec c23d 7b85 bebd 5462 dfbd 40c7 bdbd
000000a0: 9117 b53d d335 2cbe 79ea e93d f399 e33d
000000b0: 1b40 1f3e 2243 c3bd de72 ccbd 4c05 f4bd
000000c0: b7ae b0bd 15f4 823d b642 0b3e c5de ec3d
000000d0: f845 9e3d 0f21 aebd 99aa 0dbe 7cab 903d
000000e0: b7e5 f63d 4432 a7bd d0f6 003e 97bb 6e3d
000000f0: d7ee 45be fa2e 30be d9c9 1a3e 03b6 cfbd
